braindance/core/spikedetector/detection_models/neuropixels/state_dict.pt (torch, 319503 bytes, 8 tensors)

model.last_layer.weight f2 [1, 50, 31]
0	0x2c22	0.0646
1	0x9f02	-0.006844
2	0x2fa3	0.1193
3	0x2c7a	0.06995
4	0x2d11	0.07916
5	0x2981	0.043
6	0xa427	-0.01622
7	0x2479	0.01747
8	0x2464	0.01715
9	0x1d88	0.0054
10	0x2853	0.03378
11	0xab7c	-0.05847
12	0xa07a	-0.00874
13	0xab39	-0.05643
14	0xa4e6	-0.01913
15	0xa46b	-0.01726
16	0xa1c4	-0.01126
17	0x2e78	0.1011
18	0x24f6	0.01938
19	0x315a	0.1672
20	0x2d73	0.08514
21	0x2626	0.02402
22	0x2b48	0.0569
23	0x311d	0.1598
24	0x2f33	0.1125
25	0xa2d3	-0.01333
26	0x9f91	-0.00739
27	0x2c6e	0.0692
28	0x9729	-0.001748
29	0x93c6	-0.000949
30	0xabda	-0.06134
31	0x306b	0.1381
32	0xa201	-0.01173
33	0xa2d5	-0.01334
34	0x9d78	-0.00534
35	0x2df2	0.0929
36	0xa08a	-0.008865
37	0xa591	-0.02174
38	0xab01	-0.05472
39	0xaa7c	-0.05066
40	0xaab0	-0.05225
41	0xa857	-0.0339
42	0xa890	-0.03564
43	0x9acf	-0.003325
44	0x9fca	-0.007607
45	0x9f75	-0.007282
46	0xa0fe	-0.00975
47	0xa62a	-0.02408
48	0x1c3f	0.004147
49	0x2b74	0.05823
50	0x9904	-0.002449
51	0xa25a	-0.012405
52	0xa287	-0.01275
53	0xa2e1	-0.013435
54	0x30bd	0.1481
55	0xa054	-0.00845
56	0xade5	-0.0921
57	0x2e30	0.0967
58	0x2af2	0.05426
59	0xabbc	-0.06042
60	0x20d9	0.00947
61	0x2e81	0.1016
62	0x2d78	0.08545
63	0xa439	-0.0165
64	0x28e2	0.03815
65	0x2948	0.04126
66	0x28a4	0.03625
67	0x2cfa	0.07776
68	0x9ee5	-0.006733
69	0x952a	-0.001261
70	0x995d	-0.002619
71	0xa541	-0.02052
72	0xa170	-0.01062
73	0xa555	-0.02083
74	0x255b	0.02092
75	0x2f04	0.1096
76	0x2f56	0.1146
77	0x2692	0.02567
78	0xa695	-0.02571
79	0xa730	-0.02808
80	0x2ec7	0.1059
81	0x2bfd	0.0624
82	0x2b80	0.0586
83	0x9e47	-0.00613
84	0x2a7c	0.05066
85	0x9d01	-0.004887
86	0x2ccc	0.07495
87	0x2c37	0.06586
88	0x9ed3	-0.006664
89	0xa4eb	-0.01921
90	0xa819	-0.032
91	0x28e9	0.03836
92	0x2b2c	0.05603
93	0x2d3c	0.0818
94	0x283f	0.03317
95	0xa867	-0.0344
96	0xac17	-0.0639
97	0xabdd	-0.06143
98	0xa86e	-0.0346
99	0xa7c1	-0.03029
100	0xabc5	-0.0607
101	0x271f	0.02782
102	0x2f5d	0.11505
103	0xa816	-0.03192
104	0xa7eb	-0.03093
105	0xaca1	-0.0723
106	0xa9c5	-0.04507
107	0xa35b	-0.014366
108	0xa3d2	-0.015274
109	0xa400	-0.01563
110	0xa5ef	-0.02318
111	0xb20e	-0.1892
112	0x9cb5	-0.004597
113	0x2c3b	0.0661
114	0x2623	0.02397
115	0xab81	-0.05862
116	0xa892	-0.0357
117	0x313e	0.1638
118	0x2ca5	0.0726
119	0xa9d0	-0.0454
120	0xab86	-0.05878
121	0xa859	-0.03397
122	0xa749	-0.02846
123	0xaa72	-0.05035
124	0x9d90	-0.005432
125	0x2825	0.03238
126	0x2586	0.02158
127	0x2945	0.04117
128	0xa934	-0.04065
129	0xac24	-0.0647
130	0x9618	-0.001488
131	0x9c97	-0.004482
132	0x2800	0.03125
133	0xaeed	-0.1082
134	0x1031	0.0005116
135	0xab32	-0.0562
136	0xa97c	-0.04285
137	0xaf73	-0.1164
138	0xb06f	-0.1385
139	0x22d5	0.01334
140	0xa18c	-0.01083
141	0xaf40	-0.1133
142	0xab41	-0.05667
143	0xa981	-0.043
144	0xac15	-0.0638
145	0x2907	0.03928
146	0xa5a9	-0.02211
147	0x2d64	0.0842
148	0x25b7	0.02232
149	0xa2bc	-0.01315
150	0x2af3	0.0543
151	0xa280	-0.012695
152	0xa5b8	-0.02234
153	0x95db	-0.00143
154	0x2c16	0.06384
155	0x2f11	0.1104
156	0x2e11	0.0948
157	0x2082	0.008804
158	0x2c86	0.0707
159	0x1ce4	0.004776
160	0x94dd	-0.001187
161	0x9c17	-0.003994
162	0x9fe9	-0.007725
163	0xa034	-0.00821
164	0x2e84	0.1018
165	0x2aba	0.05255
166	0x2ee0	0.1074
167	0xa08f	-0.0089
168	0x29d9	0.0457
169	0xa27f	-0.01269
170	0xa023	-0.00808
171	0x9ffd	-0.0078
172	0x2eb2	0.1046
173	0x3066	0.1375
174	0xa4a8	-0.01819
175	0xa823	-0.03232
176	0x2937	0.04074
177	0x1a02	0.002934
178	0xa9c4	-0.04504
179	0x1e08	0.00589
180	0x29c7	0.04514
181	0x2d2c	0.0808
182	0xabc1	-0.06058
183	0xa4fd	-0.01949
184	0xad6e	-0.08484
185	0x28f6	0.03876
186	0x9b33	-0.003515
187	0x2e6e	0.10046
188	0xa018	-0.007996
189	0x2f04	0.1096
190	0x9a99	-0.003222
191	0x2c7b	0.07
192	0xa086	-0.008835
193	0xa025	-0.008095
194	0x2c5e	0.06824
195	0x2fa8	0.1196
196	0x2f45	0.1136
197	0x9ffd	-0.0078
198	0x2d27	0.0805
199	0x2c41	0.06647
200	0x9e72	-0.006294
201	0xa08c	-0.00888
202	0xaaf5	-0.05435
203	0x2a5b	0.04965
204	0xa6b1	-0.02614
205	0xa63d	-0.02437
206	0xa85d	-0.0341
207	0x2d74	0.0852
208	0xa85a	-0.034
209	0x2aad	0.05215
210	0x1f93	0.007397
211	0x2cce	0.0751
212	0xa288	-0.01276
213	0xa1cb	-0.011314
214	0x2b97	0.0593
215	0x2d37	0.0815
216	0xa0b6	-0.0092
217	0xafb2	-0.12024
218	0xabd8	-0.06128
219	0xa9ef	-0.04636
220	0xa7c4	-0.03033
221	0xa7d7	-0.03062
222	0xa800	-0.03125
223	0xa990	-0.04346
224	0xaff7	-0.12445
225	0x214f	0.01037
226	0xa879	-0.03494
227	0x2363	0.01443
228	0xa0ae	-0.00914
229	0xabc6	-0.06073
230	0xaae8	-0.05396
231	0x9aa7	-0.003248
232	0x1c45	0.00417
233	0x2b70	0.0581
234	0x2dcd	0.09064
235	0xa541	-0.02052
236	0x2c5b	0.06805
237	0x2b7b	0.05844
238	0x2e3a	0.0973
239	0x2777	0.02916
240	0x1f11	0.0069
241	0x287e	0.0351
242	0xb001	-0.1251
243	0xab07	-0.0549
244	0xa7d6	-0.03061
245	0xa7d5	-0.0306
246	0xa8e5	-0.03824
247	0xaf18	-0.11084
248	0x20b7	0.00921
249	0xa4fd	-0.01949
250	0x182e	0.00204
251	0x2dc0	0.08984
252	0x260f	0.02367
253	0xa0dc	-0.00949
254	0xab1a	-0.05548
255	0x270a	0.0275

model.conv.0.weight f2 [50, 1, 31]
0	0x2e85	0.10187
1	0x2a9a	0.05157
2	0xad1b	-0.0798
3	0xaca0	-0.07227
4	0x2c50	0.0674
5	0x2e9c	0.1033
6	0x2f8c	0.1179
7	0x3087	0.1415
8	0xa1fc	-0.01169
9	0xb045	-0.1334
10	0xb0b5	-0.1471
11	0x2bde	0.06146
12	0x2c06	0.06287
13	0x2c69	0.0689
14	0xa43b	-0.01653
15	0xb053	-0.1351
16	0xb14f	-0.1659
17	0x145f	0.001067
18	0x2de6	0.09216
19	0x2cfe	0.078
20	0x2033	0.0082
21	0x2878	0.0349
22	0x2621	0.02394
23	0x8695	-0.00010043
24	0xa9aa	-0.04425
25	0xabb6	-0.06024
26	0x1d62	0.005257
27	0x2b9a	0.0594
28	0x2c6f	0.0693
29	0x27e6	0.03085
30	0xacfe	-0.078
31	0x1ceb	0.004803
32	0xad38	-0.08154
33	0xb56c	-0.3389
34	0xb213	-0.1898
35	0xaf18	-0.11084
36	0x2a6a	0.0501
37	0x2e87	0.102
38	0x2959	0.04178
39	0x296c	0.04236
40	0x1f5d	0.00719
41	0x2d03	0.0783
42	0x2d89	0.0865
43	0xa798	-0.02966
44	0xa3c5	-0.015175
45	0xad62	-0.0841
46	0x9eb7	-0.006557
47	0x2b5a	0.05743
48	0x2c16	0.06384
49	0xa6c8	-0.02649
50	0xacdc	-0.0759
51	0xa9fd	-0.04678
52	0xa4ae	-0.01828
53	0x2a3c	0.0487
54	0x27da	0.03067
55	0x1d7a	0.00535
56	0xa451	-0.01686
57	0xa7f2	-0.03104
58	0x0ff0	0.0004845
59	0x9c4f	-0.004208
60	0x9fa9	-0.00748
61	0x200c	0.007904
62	0x228f	0.01281
63	0xa948	-0.04126
64	0x2923	0.04013
65	0x2c42	0.0665
66	0x2a46	0.049
67	0x9f31	-0.007023
68	0xaac8	-0.05298
69	0xace3	-0.07635
70	0x9a1e	-0.002987
71	0xa8d2	-0.03766
72	0x210f	0.00988
73	0x2f61	0.1153
74	0x2ef7	0.1088
75	0x2c27	0.0649
76	0xa34b	-0.014244
77	0xabfc	-0.06238
78	0xad79	-0.0855
79	0xac16	-0.06384
80	0xa4c2	-0.01859
81	0x27ae	0.03
82	0x313d	0.1637
83	0x3022	0.1292
84	0x2627	0.02403
85	0x169e	0.001616
86	0xa605	-0.02351
87	0xa77a	-0.0292
88	0x210b	0.00985
89	0x2d03	0.0783
90	0x30e0	0.1523
91	0x23c0	0.01514
92	0x2b08	0.05493
93	0xaac2	-0.0528
94	0xa9bf	-0.0449
95	0x2986	0.04315
96	0x2cce	0.0751
97	0x2fd2	0.1222
98	0x2e6b	0.1003
99	0xac7c	-0.07007
100	0xb405	-0.2512
101	0xb332	-0.2249
102	0x99ec	-0.002892
103	0x2d0c	0.07886
104	0x2b34	0.05627
105	0xaeb8	-0.105
106	0xb296	-0.2058
107	0xb60f	-0.3787
108	0xb191	-0.174
109	0x26f4	0.02716
110	0x2b86	0.05878
111	0xa40a	-0.01578
112	0xaba7	-0.05978
113	0xa813	-0.03183
114	0xa95e	-0.04193
115	0xa06d	-0.008644
116	0x2e88	0.10205
117	0x333b	0.226
118	0x2ee9	0.108
119	0x3248	0.1963
120	0x2f87	0.1176
121	0x3405	0.2512
122	0x2e17	0.09515
123	0x341a	0.2563
124	0x1e68	0.006256
125	0x286e	0.0346
126	0x26ff	0.02733
127	0xac77	-0.06976
128	0xa575	-0.02132
129	0xa5f7	-0.0233
130	0x29f9	0.04666
131	0x29d8	0.04565
132	0x29b4	0.04456
133	0x2b2c	0.05603
134	0x2a00	0.04688
135	0x2a54	0.04944
136	0x2a76	0.05048
137	0x9c44	-0.004166
138	0x2ad2	0.05328
139	0x2cbc	0.074
140	0x2cf5	0.07745
141	0x2d2b	0.08075
142	0x2db3	0.08905
143	0x2356	0.01433
144	0x2ae4	0.05383
145	0xa4e9	-0.01918
146	0xa23f	-0.0122
147	0xab15	-0.05533
148	0xab5d	-0.05753
149	0xabd9	-0.0613
150	0x29ca	0.04523
151	0x14f7	0.001212
152	0xabca	-0.06085
153	0xafd0	-0.1221
154	0xaa8a	-0.0511
155	0x286e	0.0346
156	0x2957	0.04172
157	0x9d91	-0.005436
158	0xabf0	-0.062
159	0xa838	-0.03296
160	0xab0b	-0.05502
161	0x1d40	0.005127
162	0x9fb6	-0.00753
163	0x9cd5	-0.00472
164	0xa7f4	-0.03107
165	0xa4b1	-0.01833
166	0xa9fb	-0.04672
167	0x319e	0.1755
168	0x264b	0.02458
169	0x2853	0.03378
170	0x2cb8	0.0737
171	0x3036	0.1316
172	0x3076	0.1394
173	0xae29	-0.09625
174	0xb1b2	-0.178
175	0xb2ec	-0.2163
176	0xb08a	-0.1418
177	0x2890	0.03564
178	0x2ddb	0.0915
179	0x309d	0.1442
180	0x26b2	0.02615
181	0x90b9	-0.0005765
182	0xabf2	-0.06207
183	0x1fd9	0.007664
184	0x2bb4	0.06018
185	0xad7c	-0.0857
186	0x2842	0.03326
187	0xa3b3	-0.01504
188	0x1a54	0.00309
189	0xace5	-0.0765
190	0x2a67	0.05002
191	0x2439	0.0165
192	0xaa25	-0.048
193	0xad75	-0.08527
194	0x272b	0.028
195	0xb014	-0.1274
196	0xac48	-0.0669
197	0xa3d1	-0.01527
198	0x2c4c	0.06714
199	0x22a3	0.01296
200	0x300f	0.1268
201	0x24a8	0.01819
202	0x2c82	0.07043
203	0xaa81	-0.0508
204	0x24ec	0.01923
205	0x29d0	0.0454
206	0x2c09	0.06305
207	0x2ce2	0.0763
208	0xaafb	-0.05453
209	0xb02d	-0.1305
210	0xb18a	-0.1731
211	0xae7e	-0.10144
212	0xa368	-0.014465
213	0x2942	0.04108
214	0x2b5e	0.05756
215	0xaa8e	-0.0512
216	0xaab1	-0.05228
217	0x1d58	0.00522
218	0xac72	-0.06946
219	0xab45	-0.0568
220	0x2cd9	0.07574
221	0x3034	0.1313
222	0x2852	0.03375
223	0x2813	0.03183
224	0xa813	-0.03183
225	0xad10	-0.0791
226	0xa419	-0.016
227	0x252d	0.02022
228	0x120a	0.000737
229	0x287a	0.03497
230	0xaaf2	-0.05426
231	0x2165	0.01054
232	0xa874	-0.0348
233	0x9cdb	-0.00474
234	0x2b1f	0.05563
235	0xa694	-0.0257
236	0x1d4b	0.00517
237	0xa689	-0.02553
238	0x293e	0.04095
239	0xa9f6	-0.04657
240	0xab1e	-0.0556
241	0x2515	0.01985
242	0x9afa	-0.003407
243	0x2c22	0.0646
244	0x9ac6	-0.003307
245	0x1eb4	0.006546
246	0x1f2d	0.007008
247	0xa0ed	-0.00962
248	0x2071	0.008675
249	0xafb4	-0.12036
250	0xa6bf	-0.02635
251	0xa5a0	-0.02197
252	0x29d6	0.0456
253	0x2510	0.01978
254	0xa94f	-0.04147
255	0x206e	0.00865

model.conv.0.bias f2 [50]
0	0x1e47	0.00613
1	0x23ad	0.01499
2	0x2b31	0.05618
3	0xaee3	-0.1076
4	0x3114	0.1587
5	0x2fac	0.1199
6	0xac1d	-0.0643
7	0xab88	-0.05884
8	0xb018	-0.1279
9	0xad52	-0.0831
10	0x30a6	0.1453
11	0xa8f9	-0.03885
12	0x32bd	0.2106
13	0x9651	-0.001542
14	0x9d1f	-0.005
15	0xa8f9	-0.03885
16	0xa8eb	-0.03842
17	0xab05	-0.05484
18	0xa4f1	-0.0193
19	0xab4c	-0.057
20	0x25af	0.0222
21	0xaab7	-0.05246
22	0x9eea	-0.006752
23	0xaa99	-0.05154
24	0x2c2a	0.06506
25	0xa83c	-0.03308
26	0xa2d5	-0.01334
27	0x2e4d	0.09845
28	0xac3d	-0.0662
29	0xae55	-0.09894
30	0xad3b	-0.0817
31	0xac40	-0.0664
32	0x30ff	0.1561
33	0xac0f	-0.0634
34	0xa471	-0.01735
35	0xabd4	-0.06116
36	0xaf13	-0.11053
37	0xaa56	-0.0495
38	0xacc8	-0.0747
39	0xafa1	-0.1192
40	0x2922	0.0401
41	0x2c55	0.0677
42	0xadb4	-0.0891
43	0x291e	0.03998
44	0xab00	-0.0547
45	0x1b42	0.003544
46	0x2714	0.02765
47	0xaad6	-0.0534
48	0x367e	0.4058
49	0xa845	-0.03336

model.conv.2.weight f2 [50, 50, 31]
0	0x9cf7	-0.00485
1	0x2c06	0.06287
2	0x973d	-0.001767
3	0xa40d	-0.01582
4	0x2716	0.02768
5	0xa293	-0.01284
6	0xa937	-0.04074
7	0xa7ce	-0.03049
8	0x932e	-0.0008764
9	0x2b89	0.05887
10	0x2bce	0.06097
11	0xa41b	-0.01604
12	0xa7f4	-0.03107
13	0xa87d	-0.03506
14	0x2029	0.008125
15	0x23f9	0.01557
16	0x2545	0.02058
17	0xa631	-0.02419
18	0xa015	-0.00797
19	0xa0f7	-0.0097
20	0x2a84	0.0509
21	0x9f12	-0.006905
22	0xa433	-0.0164
23	0xac55	-0.0677
24	0xa38e	-0.014755
25	0xa2f6	-0.013596
26	0xa3e4	-0.01541
27	0x2ae4	0.05383
28	0xa90d	-0.03946
29	0xa0ab	-0.00912
30	0xa6c9	-0.0265
31	0x91ba	-0.000699
32	0xa4da	-0.01895
33	0xa236	-0.01213
34	0xa620	-0.02393
35	0x2469	0.01723
36	0xa3c2	-0.01515
37	0xa06b	-0.00863
38	0x9fe7	-0.007717
39	0x2ac2	0.0528
40	0x21f8	0.01166
41	0x2738	0.0282
42	0x25c7	0.02257
43	0x2636	0.02426
44	0xa5ee	-0.02316
45	0x9cb6	-0.0046
46	0xa2db	-0.01339
47	0xa67f	-0.02538
48	0x9fdb	-0.00767
49	0xa3c2	-0.01515
50	0xa7d9	-0.03065
51	0x2940	0.04102
52	0x20d5	0.00944
53	0x2ded	0.0926
54	0x265f	0.02489
55	0x2424	0.01617
56	0x18c0	0.00232
57	0x99c8	-0.002823
58	0x25db	0.02287
59	0x2468	0.01721
60	0x19d6	0.00285
61	0x22ea	0.013504
62	0x2c32	0.06555
63	0xa657	-0.02477
64	0x2b8e	0.05902
65	0x1179	0.000668
66	0xa3b5	-0.01505
67	0xa764	-0.02887
68	0xa6a7	-0.02599
69	0xa7c7	-0.03038
70	0x2154	0.01041
71	0x2f85	0.1175
72	0x189a	0.002247
73	0xa7ac	-0.02997
74	0x9c23	-0.00404
75	0xa3b4	-0.015045
76	0xa3fd	-0.0156
77	0xa302	-0.01369
78	0x26e2	0.02689
79	0x2cb8	0.0737
80	0x255e	0.02097
81	0xa556	-0.02084
82	0x2a78	0.05054
83	0xa72c	-0.02802
84	0xa3aa	-0.01497
85	0x2647	0.02452
86	0x9f44	-0.007095
87	0xa2bc	-0.01315
88	0x9b31	-0.003511
89	0x9ea4	-0.006485
90	0x9b1d	-0.003473
91	0x2cbb	0.0739
92	0x2030	0.00818
93	0xa37c	-0.01462
94	0xa552	-0.02078
95	0x2bae	0.06
96	0xa25e	-0.012436
97	0xa447	-0.01671
98	0xa763	-0.02885
99	0xa415	-0.01595
100	0xa9da	-0.04572
101	0xa658	-0.02478
102	0xa280	-0.012695
103	0x1d32	0.005074
104	0x2848	0.03345
105	0xaae7	-0.05392
106	0xac1a	-0.0641
107	0xabdc	-0.0614
108	0x244a	0.01675
109	0x2817	0.03195
110	0x29b3	0.04453
111	0x2875	0.03482
112	0x9d9b	-0.005474
113	0xa7dd	-0.03072
114	0xa7bd	-0.03023
115	0xa432	-0.01639
116	0x26bc	0.0263
117	0xa3c7	-0.01519
118	0xa09b	-0.008995
119	0x25d3	0.02275
120	0x0fcd	0.0004761
121	0x25a0	0.02197
122	0xa166	-0.010544
123	0x2c5c	0.0681
124	0x227f	0.01269
125	0x25a5	0.02205
126	0xa424	-0.01617
127	0xa906	-0.03925
128	0xa8ef	-0.03854
129	0x17e6	0.001928
130	0xa76a	-0.02896
131	0x9d46	-0.00515
132	0x2c07	0.0629
133	0xa559	-0.02089
134	0xa638	-0.02429
135	0xa2cd	-0.01328
136	0xa673	-0.02519
137	0xa657	-0.02477
138	0xa3a1	-0.0149
139	0x2c59	0.06793
140	0xa5f5	-0.02327
141	0xa48a	-0.01773
142	0x20c1	0.009285
143	0xa781	-0.02931
144	0xa1b7	-0.01116
145	0x9ea8	-0.0065
146	0x210c	0.00986
147	0xa5a1	-0.02199
148	0xa5cf	-0.02269
149	0x2cb7	0.07367
150	0x0ace	0.0002077
151	0xa585	-0.02156
152	0xa740	-0.02832
153	0xa605	-0.02351
154	0x2c3a	0.06604
155	0xa753	-0.02861
156	0x9fba	-0.007545
157	0x1966	0.002636
158	0xa52e	-0.02023
159	0x2601	0.02345
160	0x2de3	0.092
161	0x2190	0.010864
162	0xaa12	-0.04742
163	0x082b	0.0001272
164	0xa813	-0.03183
165	0xa7bc	-0.03021
166	0xa5c3	-0.0225
167	0xa5fd	-0.02339
168	0xa624	-0.02399
169	0xa60a	-0.02359
170	0xa3e4	-0.01541
171	0xa11b	-0.00997
172	0xa474	-0.0174
173	0xa8c8	-0.03735
174	0xa4c3	-0.0186
175	0x2d5f	0.0839
176	0x1d31	0.00507
177	0x9b2c	-0.003502
178	0xa40f	-0.01585
179	0xa829	-0.0325
180	0xa445	-0.01668
181	0xa0dd	-0.0095
182	0xa6a8	-0.026
183	0x2c03	0.0627
184	0x9983	-0.002691
185	0x9c37	-0.004116
186	0x2182	0.01076
187	0x2292	0.01283
188	0x1466	0.001074
189	0xa5c2	-0.02249
190	0xa4fb	-0.01945
191	0xa415	-0.01595
192	0x9f87	-0.00735
193	0x2591	0.02174
194	0x2783	0.02934
195	0x9d7a	-0.00535
196	0x2903	0.03915
197	0xa2eb	-0.01351
198	0x1e6a	0.006264
199	0xa280	-0.012695
200	0xa756	-0.02866
201	0x9a07	-0.002943
202	0x2d4a	0.08264
203	0xa3fd	-0.0156
204	0x2536	0.02036
205	0x25a1	0.02199
206	0xa9d9	-0.0457
207	0x23c4	0.01517
208	0x29a8	0.0442
209	0x9cfc	-0.004868
210	0x9aa7	-0.003248
211	0x20d4	0.00943
212	0x285a	0.034
213	0xa681	-0.0254
214	0x22ae	0.01305
215	0x2647	0.02452
216	0x2861	0.0342
217	0x2933	0.04062
218	0xa6eb	-0.02702
219	0x9cc9	-0.004673
220	0x9fa4	-0.00746
221	0x9feb	-0.007732
222	0x2403	0.01567
223	0x2b6c	0.05798
224	0xa4e7	-0.01915
225	0xa47e	-0.01755
226	0x9b17	-0.003462
227	0xa6cf	-0.0266
228	0xa5ae	-0.02219
229	0x9730	-0.001755
230	0x9f7e	-0.007317
231	0xa9da	-0.04572
232	0xa9b8	-0.04468
233	0x29cd	0.04532
234	0x243b	0.01653
235	0x253c	0.02045
236	0x2763	0.02885
237	0x192e	0.00253
238	0x24b6	0.0184
239	0x24f4	0.01935
240	0x20dc	0.00949
241	0x27ab	0.02995
242	0x9ca0	-0.004517
243	0xa826	-0.0324
244	0xa30d	-0.01377
245	0x0335	4.894e-05
246	0x2447	0.01671
247	0x9f5e	-0.007195
248	0x2604	0.0235
249	0x2118	0.00995
250	0x26a5	0.02596
251	0xa171	-0.01063
252	0xa9d8	-0.04565
253	0xa80d	-0.03165
254	0xa25d	-0.01243
255	0x297f	0.04294

model.conv.2.bias f2 [50]
0	0xacfc	-0.0779
1	0x2d89	0.0865
2	0xac2c	-0.0652
3	0x9f76	-0.007286
4	0xa8bd	-0.03702
5	0xa47b	-0.0175
6	0xa827	-0.03244
7	0x337d	0.234
8	0xa831	-0.03275
9	0xac97	-0.0717
10	0x2ec7	0.1059
11	0x2ddb	0.0915
12	0xacf3	-0.07733
13	0x28cc	0.03748
14	0xac01	-0.06256
15	0xa5a6	-0.02206
16	0x0e46	0.000383
17	0x33ca	0.2434
18	0x2d16	0.07947
19	0x3071	0.1388
20	0x2f9d	0.11896
21	0x21e1	0.01148
22	0xa70d	-0.02754
23	0x1f54	0.007156
24	0xabed	-0.06192
25	0x3143	0.1644
26	0xa658	-0.02478
27	0x2ce2	0.0763
28	0x2f10	0.11035
29	0xabfb	-0.06235
30	0xabcd	-0.06094
31	0x251e	0.01999
32	0xabe3	-0.0616
33	0xb252	-0.1975
34	0xa3f2	-0.01552
35	0xa380	-0.01465
36	0x1f43	0.00709
37	0xa836	-0.0329
38	0xaf38	-0.1128
39	0xaae2	-0.05377
40	0x2a71	0.05032
41	0xa7c6	-0.03036
42	0x270f	0.02757
43	0x3030	0.1309
44	0x2e45	0.09796
45	0xa394	-0.0148
46	0x338b	0.2357
47	0x271b	0.02776
48	0xa518	-0.0199
49	0x3252	0.1975

model.conv.4.weight f2 [50, 50, 31]
0	0xa71f	-0.02782
1	0x2c02	0.0626
2	0x9f1d	-0.006947
3	0x9e66	-0.00625
4	0x9ea8	-0.0065
5	0x9a2b	-0.003012
6	0x27a0	0.02979
7	0xa6f7	-0.0272
8	0xa54e	-0.02072
9	0xaaa2	-0.05182
10	0x2801	0.03128
11	0xaab5	-0.0524
12	0xa01e	-0.00804
13	0x93fe	-0.0009756
14	0xa7e0	-0.03076
15	0x1efa	0.006813
16	0x24e0	0.01904
17	0x2353	0.014305
18	0x236c	0.014496
19	0xa9fe	-0.0468
20	0xa4d3	-0.01884
21	0xa358	-0.01434
22	0xa54e	-0.02072
23	0x92a7	-0.000812
24	0xa5e1	-0.02296
25	0xa404	-0.01569
26	0xa11b	-0.00997
27	0x264a	0.02457
28	0x2b8b	0.05893
29	0x1cb6	0.0046
30	0x2b56	0.0573
31	0xa1a0	-0.01099
32	0x27fa	0.03116
33	0xa045	-0.00834
34	0x1e21	0.005985
35	0x9c01	-0.00391
36	0x1fba	0.007545
37	0xa460	-0.01709
38	0x9564	-0.001316
39	0x88c8	-0.0001459
40	0x9be2	-0.003849
41	0xa0fe	-0.00975
42	0xa235	-0.01212
43	0x2a29	0.04813
44	0xa146	-0.0103
45	0xa38e	-0.014755
46	0xa886	-0.03534
47	0xa636	-0.02426
48	0x296c	0.04236
49	0x22ad	0.01304
50	0x25d8	0.02283
51	0x27bd	0.03023
52	0x25c7	0.02257
53	0x175c	0.001797
54	0xa416	-0.01596
55	0xa448	-0.01672
56	0xa8a0	-0.03613
57	0xa948	-0.04126
58	0xa40d	-0.01582
59	0xa798	-0.02966
60	0xa5fa	-0.02335
61	0x9b82	-0.003666
62	0x2750	0.02856
63	0x1fd6	0.007652
64	0xac0c	-0.06323
65	0xa484	-0.01764
66	0x98ac	-0.002281
67	0xa2f5	-0.01359
68	0x2210	0.01184
69	0x99ed	-0.002893
70	0xa383	-0.01467
71	0xa3b2	-0.01503
72	0xa8de	-0.03802
73	0xa974	-0.0426
74	0x1e24	0.005997
75	0xa2dd	-0.013405
76	0xab27	-0.05588
77	0x1eb2	0.00654
78	0x96b0	-0.001633
79	0x1efd	0.006824
80	0xa255	-0.01237
81	0x98fe	-0.002438
82	0xa851	-0.03372
83	0x2453	0.01689
84	0x20f5	0.00968
85	0x2706	0.02744
86	0xa951	-0.04153
87	0x9be0	-0.003845
88	0x2a1c	0.04773
89	0xa6d7	-0.02672
90	0x280c	0.03162
91	0x262e	0.02414
92	0x9d5d	-0.005238
93	0x24c0	0.01855
94	0xa3a0	-0.01489
95	0x23f2	0.01552
96	0x94e0	-0.00119
97	0x29cc	0.0453
98	0x1413	0.000995
99	0x2342	0.014175
100	0x198d	0.00271
101	0x1912	0.002476
102	0x257e	0.02145
103	0x1fce	0.00762
104	0xa910	-0.03955
105	0x2400	0.01563
106	0xa61b	-0.02385
107	0xabdb	-0.06137
108	0x1d25	0.005024
109	0xa6ea	-0.02701
110	0xa963	-0.04208
111	0x26c9	0.0265
112	0x198f	0.002714
113	0x9c07	-0.003933
114	0xa638	-0.02429
115	0xa5fd	-0.02339
116	0x2059	0.00849
117	0x2192	0.01088
118	0x9f42	-0.007088
119	0x25c8	0.02258
120	0x9ff5	-0.00777
121	0x275b	0.02873
122	0xa86d	-0.03458
123	0x23ea	0.01546
124	0xa00d	-0.00791
125	0x9ed6	-0.006676
126	0xa40b	-0.0158
127	0x9c82	-0.004402
128	0xa433	-0.0164
129	0xa34f	-0.014275
130	0x2a0c	0.04724
131	0xa614	-0.02374
132	0xa2f4	-0.01358
133	0x1585	0.001348
134	0x2b41	0.05667
135	0xa74d	-0.02852
136	0x9a85	-0.003183
137	0xa0ca	-0.00935
138	0x2a12	0.04742
139	0xa36b	-0.01449
140	0x279d	0.02974
141	0x2763	0.02885
142	0xa3df	-0.01537
143	0xa663	-0.02495
144	0xa3a2	-0.01491
145	0xa3d5	-0.0153
146	0x27fa	0.03116
147	0x266f	0.02513
148	0xa2f2	-0.013565
149	0x9bea	-0.003864
150	0x266a	0.02505
151	0xa54c	-0.02069
152	0x98e9	-0.002398
153	0x215d	0.010475
154	0xa2f1	-0.01356
155	0xa843	-0.0333
156	0x29ef	0.04636
157	0xa9cd	-0.04532
158	0x26a0	0.02588
159	0x206c	0.00864
160	0x259a	0.02188
161	0xa15a	-0.01045
162	0x2722	0.02786
163	0xa1dc	-0.011444
164	0x2a55	0.04947
165	0x263e	0.02438
166	0x1f8b	0.007366
167	0x2227	0.01202
168	0xa58b	-0.02165
169	0x1a69	0.00313
170	0x22f8	0.01361
171	0x2681	0.0254
172	0xa608	-0.02356
173	0x9c75	-0.004353
174	0x274f	0.02855
175	0x20b3	0.00918
176	0xa893	-0.03574
177	0xa427	-0.01622
178	0x2412	0.0159
179	0x99dc	-0.002861
180	0xa8f4	-0.0387
181	0x8ba8	-0.0002337
182	0xabc8	-0.0608
183	0xa794	-0.0296
184	0x28f4	0.0387
185	0x1d8b	0.005413
186	0x280c	0.03162
187	0x25e1	0.02296
188	0xa558	-0.02087
189	0xa439	-0.0165
190	0x269b	0.0258
191	0x28aa	0.03644
192	0x2107	0.00982
193	0xa383	-0.01467
194	0xa84a	-0.0335
195	0x9fdd	-0.00768
196	0x2493	0.01787
197	0x217f	0.010735
198	0x9b40	-0.00354
199	0x999c	-0.002739
200	0x2725	0.02791
201	0x1c86	0.004417
202	0xa1fc	-0.01169
203	0x224d	0.01231
204	0xa6f6	-0.02719
205	0x2532	0.0203
206	0x98fe	-0.002438
207	0xa557	-0.02086
208	0xa34d	-0.01426
209	0xa046	-0.00835
210	0xa11c	-0.00998
211	0x9ad4	-0.003334
212	0x24b9	0.01845
213	0xa080	-0.00879
214	0x2074	0.0087
215	0x29bf	0.0449
216	0x2a33	0.04843
217	0x9e9d	-0.00646
218	0x2811	0.03177
219	0x9877	-0.00218
220	0x2c3b	0.0661
221	0x9a73	-0.003149
222	0xa499	-0.01796
223	0x2ceb	0.07684
224	0x98f6	-0.002422
225	0x9c0a	-0.003944
226	0xa3c6	-0.01518
227	0xa1e3	-0.0115
228	0xa76a	-0.02896
229	0xa77e	-0.02927
230	0x9c8d	-0.004444
231	0xa504	-0.01959
232	0x2761	0.02882
233	0x952a	-0.001261
234	0x8146	-1.943e-05
235	0xa79f	-0.02977
236	0x23aa	0.01497
237	0x9a9a	-0.003223
238	0xa1df	-0.01147
239	0xa1af	-0.0111
240	0xa0b4	-0.009186
241	0xa850	-0.0337
242	0xab77	-0.05832
243	0xaa49	-0.0491
244	0xaa04	-0.047
245	0xa993	-0.04355
246	0xa89b	-0.03598
247	0xa56a	-0.02115
248	0xa8c1	-0.03714
249	0x24aa	0.01822
250	0x981e	-0.00201
251	0x2508	0.01965
252	0x9984	-0.002693
253	0x9bab	-0.003744
254	0x2969	0.04227
255	0xa1c8	-0.01129

model.conv.4.bias f2 [50]
0	0x2b89	0.05887
1	0xa5aa	-0.02213
2	0x21dc	0.011444
3	0x2ac8	0.05298
4	0xaa96	-0.05145
5	0x2e65	0.0999
6	0xa453	-0.01689
7	0x2d74	0.0852
8	0x9e55	-0.006184
9	0x2bf9	0.0623
10	0x2b1c	0.05554
11	0x27e9	0.0309
12	0x94e2	-0.001192
13	0xa6be	-0.02634
14	0xabc4	-0.06067
15	0x2c18	0.06396
16	0xaacb	-0.05307
17	0x2c05	0.0628
18	0x2a5f	0.04977
19	0x2ba3	0.05966
20	0x2aef	0.05417
21	0x2c13	0.06366
22	0xad82	-0.08606
23	0xaa58	-0.04956
24	0x2bf4	0.06213
25	0x2448	0.01672
26	0x221b	0.011925
27	0xa1fa	-0.01167
28	0x2d70	0.08496
29	0x2643	0.02446
30	0x2e82	0.1017
31	0xa18e	-0.01085
32	0x26b7	0.02623
33	0x1d8b	0.005413
34	0x2a2c	0.04822
35	0xa970	-0.04248
36	0x2945	0.04117
37	0x3135	0.1627
38	0x2bfb	0.06235
39	0xa66f	-0.02513
40	0xa1e5	-0.01151
41	0xafea	-0.12366
42	0xa09f	-0.009026
43	0xa068	-0.008606
44	0x303e	0.1326
45	0x2c92	0.0714
46	0xa84f	-0.03366
47	0x25bb	0.02238
48	0xa6f2	-0.02713
49	0x2c3e	0.0663

model.conv.6.weight f2 [1, 50, 31]
0	0x2c22	0.0646
1	0x9f02	-0.006844
2	0x2fa3	0.1193
3	0x2c7a	0.06995
4	0x2d11	0.07916
5	0x2981	0.043
6	0xa427	-0.01622
7	0x2479	0.01747
8	0x2464	0.01715
9	0x1d88	0.0054
10	0x2853	0.03378
11	0xab7c	-0.05847
12	0xa07a	-0.00874
13	0xab39	-0.05643
14	0xa4e6	-0.01913
15	0xa46b	-0.01726
16	0xa1c4	-0.01126
17	0x2e78	0.1011
18	0x24f6	0.01938
19	0x315a	0.1672
20	0x2d73	0.08514
21	0x2626	0.02402
22	0x2b48	0.0569
23	0x311d	0.1598
24	0x2f33	0.1125
25	0xa2d3	-0.01333
26	0x9f91	-0.00739
27	0x2c6e	0.0692
28	0x9729	-0.001748
29	0x93c6	-0.000949
30	0xabda	-0.06134
31	0x306b	0.1381
32	0xa201	-0.01173
33	0xa2d5	-0.01334
34	0x9d78	-0.00534
35	0x2df2	0.0929
36	0xa08a	-0.008865
37	0xa591	-0.02174
38	0xab01	-0.05472
39	0xaa7c	-0.05066
40	0xaab0	-0.05225
41	0xa857	-0.0339
42	0xa890	-0.03564
43	0x9acf	-0.003325
44	0x9fca	-0.007607
45	0x9f75	-0.007282
46	0xa0fe	-0.00975
47	0xa62a	-0.02408
48	0x1c3f	0.004147
49	0x2b74	0.05823
50	0x9904	-0.002449
51	0xa25a	-0.012405
52	0xa287	-0.01275
53	0xa2e1	-0.013435
54	0x30bd	0.1481
55	0xa054	-0.00845
56	0xade5	-0.0921
57	0x2e30	0.0967
58	0x2af2	0.05426
59	0xabbc	-0.06042
60	0x20d9	0.00947
61	0x2e81	0.1016
62	0x2d78	0.08545
63	0xa439	-0.0165
64	0x28e2	0.03815
65	0x2948	0.04126
66	0x28a4	0.03625
67	0x2cfa	0.07776
68	0x9ee5	-0.006733
69	0x952a	-0.001261
70	0x995d	-0.002619
71	0xa541	-0.02052
72	0xa170	-0.01062
73	0xa555	-0.02083
74	0x255b	0.02092
75	0x2f04	0.1096
76	0x2f56	0.1146
77	0x2692	0.02567
78	0xa695	-0.02571
79	0xa730	-0.02808
80	0x2ec7	0.1059
81	0x2bfd	0.0624
82	0x2b80	0.0586
83	0x9e47	-0.00613
84	0x2a7c	0.05066
85	0x9d01	-0.004887
86	0x2ccc	0.07495
87	0x2c37	0.06586
88	0x9ed3	-0.006664
89	0xa4eb	-0.01921
90	0xa819	-0.032
91	0x28e9	0.03836
92	0x2b2c	0.05603
93	0x2d3c	0.0818
94	0x283f	0.03317
95	0xa867	-0.0344
96	0xac17	-0.0639
97	0xabdd	-0.06143
98	0xa86e	-0.0346
99	0xa7c1	-0.03029
100	0xabc5	-0.0607
101	0x271f	0.02782
102	0x2f5d	0.11505
103	0xa816	-0.03192
104	0xa7eb	-0.03093
105	0xaca1	-0.0723
106	0xa9c5	-0.04507
107	0xa35b	-0.014366
108	0xa3d2	-0.015274
109	0xa400	-0.01563
110	0xa5ef	-0.02318
111	0xb20e	-0.1892
112	0x9cb5	-0.004597
113	0x2c3b	0.0661
114	0x2623	0.02397
115	0xab81	-0.05862
116	0xa892	-0.0357
117	0x313e	0.1638
118	0x2ca5	0.0726
119	0xa9d0	-0.0454
120	0xab86	-0.05878
121	0xa859	-0.03397
122	0xa749	-0.02846
123	0xaa72	-0.05035
124	0x9d90	-0.005432
125	0x2825	0.03238
126	0x2586	0.02158
127	0x2945	0.04117
128	0xa934	-0.04065
129	0xac24	-0.0647
130	0x9618	-0.001488
131	0x9c97	-0.004482
132	0x2800	0.03125
133	0xaeed	-0.1082
134	0x1031	0.0005116
135	0xab32	-0.0562
136	0xa97c	-0.04285
137	0xaf73	-0.1164
138	0xb06f	-0.1385
139	0x22d5	0.01334
140	0xa18c	-0.01083
141	0xaf40	-0.1133
142	0xab41	-0.05667
143	0xa981	-0.043
144	0xac15	-0.0638
145	0x2907	0.03928
146	0xa5a9	-0.02211
147	0x2d64	0.0842
148	0x25b7	0.02232
149	0xa2bc	-0.01315
150	0x2af3	0.0543
151	0xa280	-0.012695
152	0xa5b8	-0.02234
153	0x95db	-0.00143
154	0x2c16	0.06384
155	0x2f11	0.1104
156	0x2e11	0.0948
157	0x2082	0.008804
158	0x2c86	0.0707
159	0x1ce4	0.004776
160	0x94dd	-0.001187
161	0x9c17	-0.003994
162	0x9fe9	-0.007725
163	0xa034	-0.00821
164	0x2e84	0.1018
165	0x2aba	0.05255
166	0x2ee0	0.1074
167	0xa08f	-0.0089
168	0x29d9	0.0457
169	0xa27f	-0.01269
170	0xa023	-0.00808
171	0x9ffd	-0.0078
172	0x2eb2	0.1046
173	0x3066	0.1375
174	0xa4a8	-0.01819
175	0xa823	-0.03232
176	0x2937	0.04074
177	0x1a02	0.002934
178	0xa9c4	-0.04504
179	0x1e08	0.00589
180	0x29c7	0.04514
181	0x2d2c	0.0808
182	0xabc1	-0.06058
183	0xa4fd	-0.01949
184	0xad6e	-0.08484
185	0x28f6	0.03876
186	0x9b33	-0.003515
187	0x2e6e	0.10046
188	0xa018	-0.007996
189	0x2f04	0.1096
190	0x9a99	-0.003222
191	0x2c7b	0.07
192	0xa086	-0.008835
193	0xa025	-0.008095
194	0x2c5e	0.06824
195	0x2fa8	0.1196
196	0x2f45	0.1136
197	0x9ffd	-0.0078
198	0x2d27	0.0805
199	0x2c41	0.06647
200	0x9e72	-0.006294
201	0xa08c	-0.00888
202	0xaaf5	-0.05435
203	0x2a5b	0.04965
204	0xa6b1	-0.02614
205	0xa63d	-0.02437
206	0xa85d	-0.0341
207	0x2d74	0.0852
208	0xa85a	-0.034
209	0x2aad	0.05215
210	0x1f93	0.007397
211	0x2cce	0.0751
212	0xa288	-0.01276
213	0xa1cb	-0.011314
214	0x2b97	0.0593
215	0x2d37	0.0815
216	0xa0b6	-0.0092
217	0xafb2	-0.12024
218	0xabd8	-0.06128
219	0xa9ef	-0.04636
220	0xa7c4	-0.03033
221	0xa7d7	-0.03062
222	0xa800	-0.03125
223	0xa990	-0.04346
224	0xaff7	-0.12445
225	0x214f	0.01037
226	0xa879	-0.03494
227	0x2363	0.01443
228	0xa0ae	-0.00914
229	0xabc6	-0.06073
230	0xaae8	-0.05396
231	0x9aa7	-0.003248
232	0x1c45	0.00417
233	0x2b70	0.0581
234	0x2dcd	0.09064
235	0xa541	-0.02052
236	0x2c5b	0.06805
237	0x2b7b	0.05844
238	0x2e3a	0.0973
239	0x2777	0.02916
240	0x1f11	0.0069
241	0x287e	0.0351
242	0xb001	-0.1251
243	0xab07	-0.0549
244	0xa7d6	-0.03061
245	0xa7d5	-0.0306
246	0xa8e5	-0.03824
247	0xaf18	-0.11084
248	0x20b7	0.00921
249	0xa4fd	-0.01949
250	0x182e	0.00204
251	0x2dc0	0.08984
252	0x260f	0.02367
253	0xa0dc	-0.00949
254	0xab1a	-0.05548
255	0x270a	0.0275
