brainloop/core/spikedetector/detection_models/mea/state_dict.pt (torch, 432143 bytes, 8 tensors)

model.last_layer.weight f4 [1, 50, 21]
0	0x3dbe0efa	0.092802
1	0xbe1e21bb	-0.15442555
2	0xbe6ef706	-0.2333642
3	0xbe0572ad	-0.13032027
4	0x3dd30e74	0.10305491
5	0x3dc43cbe	0.09581898
6	0xbd04f348	-0.032458574
7	0x3c6a96d0	0.014318183
8	0xbd893422	-0.06699397
9	0x3d20f821	0.039299134
10	0x3db45748	0.0880571
11	0x3d24ddc6	0.040250562
12	0x3c8273f8	0.015924439
13	0xbd456a59	-0.048197124
14	0xba292157	-0.00064518064
15	0x3d2d307e	0.042282574
16	0xbd57863b	-0.052618247
17	0xbddd0045	-0.10791067
18	0xbe2ec0ee	-0.17065784
19	0xbd4ca973	-0.049966287
20	0xbda2f338	-0.079565465
21	0x3e0e7026	0.13909969
22	0x3d01b918	0.03167066
23	0xbc5b0ecd	-0.013370228
24	0x3dbc5dd6	0.09197585
25	0xbdb1e428	-0.086860955
26	0xbd81915e	-0.06326555
27	0xbe2f36cc	-0.17110747
28	0xbe3385eb	-0.17531554
29	0xbdcefffc	-0.10107419
30	0x3d92ae09	0.07162101
31	0x3d422a90	0.047403872
32	0xbcad02fe	-0.02111959
33	0xbd83753a	-0.064188436
34	0xbd6cdd28	-0.0578281
35	0xbd6708a7	-0.056404736
36	0xbdc56be6	-0.096397206
37	0xbe094c52	-0.1340802
38	0xbde2f83b	-0.110825025
39	0xbcf2e1ee	-0.029648747
40	0xbe348e24	-0.17632347
41	0xbdc2ecfa	-0.09517856
42	0x3cd7b9b5	0.02633367
43	0xbdec1840	-0.11528063
44	0xbd0cd291	-0.0343805
45	0xbd1989fb	-0.037485104
46	0x3dee76e2	0.11643769
47	0x3c62b783	0.013837698
48	0xbe3bc2dc	-0.18336052
49	0xbe4a31c8	-0.19745553
50	0xbd7a1391	-0.061053816
51	0x3dfeacad	0.12435279
52	0xbc96921c	-0.018380217
53	0xbd6f3d9b	-0.05840836
54	0x3dcb69f4	0.09932318
55	0xbe21c486	-0.15797624
56	0xbe79d63a	-0.24398127
57	0xbdeadef9	-0.1146831
58	0xbce90efe	-0.028449532
59	0xbd265af3	-0.04061408
60	0x3d272e71	0.040815774
61	0x3c58d632	0.013234662
62	0x3de7af4a	0.113127306
63	0x3e0ee1cc	0.13953322
64	0xbd4edb19	-0.050501917
65	0x3be09427	0.0068535986
66	0xbcdca20d	-0.02693274
67	0x3da61050	0.0810858
68	0xbc95c808	-0.018283859
69	0xbdae5bb3	-0.08513584
70	0xbdac14f0	-0.08402431
71	0xbd032c67	-0.032024767
72	0xbd8529d6	-0.0650212
73	0xbd55f7d8	-0.052238315
74	0xbde8e482	-0.113717094
75	0xbd860ff3	-0.06546011
76	0x3cea9eba	0.02864014
77	0x3cccc73f	0.024997352
78	0xbd862f20	-0.06551957
79	0xbce1cbde	-0.027563032
80	0x3cbc4cb5	0.022985796
81	0x3d368d9e	0.04456865
82	0xbd8b0122	-0.067873254
83	0xbe37661b	-0.17910044
84	0xbd66b91f	-0.05632889
85	0xbcbdac4f	-0.023153452
86	0xbd3f4343	-0.046695005
87	0xbb4020e4	-0.002931648
88	0xbcd778df	-0.026302753
89	0x39706200	0.00022924691
90	0xbd362162	-0.04446543
91	0x3cc51d95	0.024061957
92	0xbce3b397	-0.027795596
93	0xbcee8015	-0.029113809
94	0x3d4ff18f	0.050767478
95	0x3c605692	0.013692515
96	0x3cf480c4	0.029846556
97	0xbd49bb5a	-0.049250938
98	0xbd1440fe	-0.036194794
99	0x3d287dbe	0.041135542
100	0x3d7fde11	0.06246764
101	0x3d65543a	0.055988528
102	0x3d277e4f	0.04089194
103	0x3ced0719	0.028934048
104	0x3ba12c05	0.0049185776
105	0x3d8e223b	0.06940123
106	0x3dc43103	0.09579661
107	0x3d65cb10	0.05610186
108	0xbb7e68b4	-0.0038819732
109	0x3da15d05	0.0787907
110	0x3d31f8d6	0.0434502
111	0xbd65f4ba	-0.056141593
112	0xbdb3ea5b	-0.08784934
113	0xbdea698a	-0.11445911
114	0xbd8ecf9e	-0.069731936
115	0xbcfc636e	-0.03080913
116	0xbe33e8e1	-0.17569305
117	0xbdb26cf7	-0.0871219
118	0xbe2b7eed	-0.16747637
119	0x3dd46f63	0.10372808
120	0xbd98d003	-0.0746155
121	0xbe2dca9f	-0.16971825
122	0xbc8a5d6d	-0.016890252
123	0xbdd89c7d	-0.10576723
124	0xbc0a85a8	-0.008454718
125	0xbd1faf5e	-0.038985603
126	0x3e041b9e	0.1290116
127	0x3d02c361	0.03192461
128	0x3daa2a68	0.083088696
129	0x3b962e33	0.004583144
130	0x3df96247	0.12176948
131	0x3c96ceab	0.018409094
132	0x3d953dd0	0.072871804
133	0xbd153b4b	-0.0364335
134	0xbe335595	-0.17513116
135	0xbd9ce725	-0.07661275
136	0x3dcdbf7c	0.10046288
137	0xbdb99d22	-0.09063174
138	0xbdfae9b1	-0.12251604
139	0xbe8e5cc0	-0.27805138
140	0xbdea75c9	-0.11448247
141	0xbd93c217	-0.07214754
142	0x3d969846	0.073532626
143	0x39c9fbf3	0.00038525424
144	0x3d827797	0.06370466
145	0xbc40a62d	-0.011758369
146	0x3da4cc77	0.08046811
147	0x3ad42b97	0.0016187307
148	0xbcd6c459	-0.026216673
149	0xbcaa6e37	-0.020804508
150	0x3d7b464f	0.06134635
151	0x3d01dc03	0.03170396
152	0xbd11c936	-0.03559228
153	0xbbf1b57c	-0.007376371
154	0xbca4a186	-0.020096552
155	0xbb739ce6	-0.0037172376
156	0x3bd99403	0.006639959
157	0x3d482244	0.048860803
158	0xbdd75c39	-0.10515637
159	0x3cb0f3c9	0.02160062
160	0xbcff4369	-0.031160073
161	0xbdf5cead	-0.12002311
162	0x3d42de0e	0.04757505
163	0xbe04e4ed	-0.12977953
164	0xbdba7ce2	-0.09105851
165	0x3d2af5fe	0.041738503
166	0x3da64c81	0.08120061
167	0xbc664288	-0.014053948
168	0xbe2763c6	-0.16346654
169	0xbe3ec8eb	-0.18631332
170	0xbdaee7ca	-0.08540304
171	0x3c8648a8	0.016392067
172	0xbd8108ce	-0.063005075
173	0x3d72e619	0.05930147
174	0xbdc752d2	-0.097325936
175	0xbd6ddede	-0.05807387
176	0xbda37cdd	-0.079828
177	0xbcf9b93f	-0.03048384
178	0xbd2c4d9d	-0.042066205
179	0x3c862cfa	0.016378868
180	0xbad9a0ac	-0.001660367
181	0x3dc0e98c	0.094195455
182	0x3c9f26fe	0.019427773
183	0x3d6f5cf8	0.05843827
184	0xbdc0118b	-0.09378346
185	0x3c6e6196	0.0145496335
186	0x3d1ee264	0.03879012
187	0x3d84736b	0.06467327
188	0x3d269242	0.040666826
189	0xbdcc1654	-0.09965196
190	0xbe042274	-0.12903768
191	0xbcd1eb8c	-0.025625013
192	0x3d56f14e	0.05247622
193	0xbd59ed1f	-0.053204652
194	0xbde801b0	-0.11328447
195	0xbe230a91	-0.15922
196	0xbe55fcb3	-0.20897178
197	0xbe681528	-0.2266432
198	0xbe768f09	-0.24078001
199	0xbe5a7160	-0.21332312
200	0xbe0a3c2b	-0.13499515
201	0x3b4e0f0f	0.003144208
202	0x3e05aa0d	0.1305315
203	0x3d7a0da0	0.06104815
204	0x3ca642f6	0.020295601
205	0xbda4259f	-0.08014988
206	0x3c75b08e	0.014995707
207	0x3e02d729	0.1277739
208	0x3d8c6e39	0.06856961
209	0x3cd6f491	0.026239665
210	0x3db4d5f2	0.08829869
211	0x3d35dc60	0.04439962
212	0x3ca8ee7f	0.020621536
213	0xbd654756	-0.055976234
214	0xbda521c2	-0.080630794
215	0xbd2a71c5	-0.041612405
216	0xbd363f55	-0.044493992
217	0xbdb79727	-0.08964377
218	0xbe00ba11	-0.12570979
219	0x3da303d4	0.079597145
220	0xbdc05b2e	-0.09392391
221	0xbe04aa09	-0.12955488
222	0x3c1c75eb	0.009549598
223	0xbd91e2bf	-0.071233265
224	0xbd8f558f	-0.06998741
225	0x3dddbf3d	0.108274914
226	0xbcb710bb	-0.022346845
227	0xba2dda5d	-0.0006631965
228	0x3db20e7d	0.0869417
229	0xbd02a470	-0.0318951
230	0x3d8996f4	0.06718245
231	0x3df05265	0.117344655
232	0xbdae6976	-0.08516209
233	0xbe5a1a07	-0.21298991
234	0xbe31dd98	-0.17369688
235	0xbdd63796	-0.10459821
236	0xbe030325	-0.12794168
237	0xbde52036	-0.111877844
238	0xbd6b5c92	-0.05746133
239	0xbc0895a0	-0.008336455
240	0x3d6dc562	0.058049567
241	0x3c55db33	0.013052749
242	0x3ce10024	0.027465887
243	0x3c9692e8	0.018380597
244	0x3db60e98	0.08889502
245	0xbc4af6d4	-0.01238795
246	0xbd60f9ce	-0.054925732
247	0xbd72c642	-0.059271105
248	0xbdb6346d	-0.08896718
249	0x3d63e12c	0.055634663
250	0x3ce4f4a2	0.027948681
251	0x3dbb12a8	0.09134418
252	0x3ccc4d92	0.024939332
253	0xbd7d558e	-0.06184917
254	0xbc96216b	-0.018326482
255	0xbd24a922	-0.04020036

model.conv.0.weight f4 [50, 1, 21]
0	0x3d4b8ea8	0.049696594
1	0xbcc27ce9	-0.023741202
2	0xbdcf96fd	-0.101362206
3	0x3dd3d4dd	0.10343335
4	0x3e30f2e0	0.1728015
5	0xbe0b09f3	-0.13578014
6	0xbe06dc69	-0.13170017
7	0xbbb76b15	-0.005597482
8	0x3e0dca38	0.13846672
9	0x3d186fed	0.037216116
10	0xbded0c94	-0.11574665
11	0xbd60328e	-0.054735713
12	0x3c9e993d	0.01936018
13	0x3e4ba20a	0.19886032
14	0xbc8c0643	-0.01709283
15	0xbe1cc92a	-0.15311113
16	0x3d0b52e0	0.034014583
17	0x3d9aa5f1	0.07551182
18	0x3d6fa7f0	0.058509767
19	0x3a977bc3	0.001155727
20	0x3c900ae5	0.01758332
21	0xbcd2d934	-0.025738336
22	0xbd9a4d7f	-0.075343125
23	0xbe05c3ed	-0.13063021
24	0xbbf37ede	-0.007430895
25	0xbd3b70c1	-0.045761827
26	0x3e0a975d	0.13534303
27	0x3e23e6a8	0.16005957
28	0x3d5d783c	0.054069743
29	0xbdf30ccd	-0.11867676
30	0xbdc80465	-0.09766463
31	0xbd77a52f	-0.060460266
32	0x3e29cbb6	0.16581616
33	0x3e129a71	0.14316727
34	0xbd8f187c	-0.06987092
35	0xbde77096	-0.11300771
36	0xbd1a6b92	-0.037700243
37	0x3db2298e	0.08699332
38	0x3da0cbe2	0.078513876
39	0x3b11c13f	0.0022240428
40	0xbe170a2f	-0.14749978
41	0xbdddf252	-0.108372346
42	0xbd7267cb	-0.059181016
43	0xbe15b8a4	-0.14621216
44	0xbe191b6d	-0.14951868
45	0xbc3a8d67	-0.011386252
46	0x3d30d4cf	0.0431717
47	0xbd209d16	-0.03921231
48	0x3da6fcc3	0.08153679
49	0x3d82fd97	0.06396025
50	0xbdbeddac	-0.09319624
51	0xbdd21881	-0.1025858
52	0x3c6acb19	0.014330649
53	0x3d664952	0.056222267
54	0xbb971c5e	-0.004611536
55	0x3d843324	0.06455067
56	0xbc88a013	-0.016677892
57	0xbcf108ec	-0.0294232
58	0xbca84419	-0.020540284
59	0x3d13a464	0.036045447
60	0x3d745e80	0.059660435
61	0x3d8892f8	0.06668657
62	0x3d0977df	0.033561584
63	0x3e1fa3ec	0.15589875
64	0xbbfd6ce0	-0.007733926
65	0xbe23750b	-0.15962617
66	0xbc76c1dc	-0.015060868
67	0x3d5857c6	0.052818082
68	0xbd8d384e	-0.06895505
69	0xbb88cd8e	-0.0041748947
70	0x3e459908	0.19296658
71	0xbd3444a1	-0.044010762
72	0xbe04af01	-0.12957384
73	0x3e1e8c19	0.1548313
74	0x3d6741e0	0.056459308
75	0xbd28bba0	-0.04119456
76	0xbdb96720	-0.09052873
77	0x3e0a9295	0.13532479
78	0xbc25449d	-0.010087159
79	0xbcf20376	-0.029542666
80	0x3abfc161	0.0014629775
81	0x3d26fcb5	0.040768344
82	0xbd6f3a9e	-0.05840551
83	0x3c93fb05	0.018064031
84	0x3c39fbee	0.011351569
85	0xbc15863f	-0.009126245
86	0xbdc258b1	-0.09489573
87	0x3c538f56	0.012912592
88	0x3ddb9329	0.10721428
89	0x3e3388d8	0.1753267
90	0x3dca85cf	0.09888803
91	0xbe3e4cde	-0.1858401
92	0xbe0ba43a	-0.13636866
93	0xbde5338b	-0.11191472
94	0x3cc3fd59	0.023924517
95	0x3c3125f2	0.0108122695
96	0x3b9dee34	0.004819656
97	0x3d1b163b	0.037862998
98	0xbe116208	-0.14197552
99	0xbdc63c00	-0.09679413
100	0x3cac4cea	0.02103277
101	0x3e4b855e	0.19875094
102	0x3e7c5d56	0.2464498
103	0x3db1f3e4	0.086890966
104	0xbdc8888c	-0.09791669
105	0x3cc2392b	0.0237089
106	0xbc6ce573	-0.014459002
107	0xbd8de902	-0.06929208
108	0x3de2182a	0.11039765
109	0x3e2c915c	0.16852325
110	0xbd2dab61	-0.042399768
111	0xbdca3467	-0.09873276
112	0x3d38ddea	0.04513351
113	0x3d87aeee	0.06625162
114	0xbd945774	-0.07243243
115	0xbe484296	-0.1955665
116	0x3d8fdc29	0.07024414
117	0x3e0a4362	0.13502267
118	0x3ca55d5e	0.020186123
119	0x3b69a189	0.003564926
120	0xbd787b9d	-0.06066476
121	0x3e2209fd	0.15824123
122	0x3dd2df31	0.10296477
123	0xbdc89a2c	-0.09795031
124	0xbd573154	-0.052537277
125	0x3cf4b13a	0.029869664
126	0xbda2a7cc	-0.07942161
127	0x3db4148c	0.087929815
128	0x3dd7b1f4	0.10531989
129	0xbced1be6	-0.028943967
130	0xbe37c178	-0.17944896
131	0x3d4d7689	0.050161872
132	0x3e213f11	0.15746714
133	0x3d63d66a	0.055624403
134	0x3d13a455	0.03604539
135	0x3d9f75f9	0.077861734
136	0xbb462c39	-0.003023876
137	0xbe34815f	-0.17627476
138	0xbdc33fe2	-0.09533669
139	0x3e388a3d	0.18021484
140	0xbcf48cb4	-0.029852249
141	0x3dbdca01	0.09267045
142	0x3dbd354a	0.0923868
143	0x3d1f1347	0.038836744
144	0xbd1f0d1a	-0.038830854
145	0x3854a251	5.0695908e-05
146	0xbdd518cd	-0.10405121
147	0x3da15c92	0.078789845
148	0x3e0f4c03	0.1399384
149	0x3db6ceb6	0.08926146
150	0xbdc74db1	-0.09731615
151	0xbdc046f8	-0.09388536
152	0x3d98d236	0.074619696
153	0x3d52e4ff	0.05148792
154	0xbcd7fb80	-0.026365042
155	0xbd0f74fd	-0.035023678
156	0x3988dea4	0.00026105822
157	0xbc9267ea	-0.017871816
158	0xbb0debc2	-0.0021655415
159	0xbc28e5d1	-0.010308699
160	0xbd3d1758	-0.04616484
161	0xbd0a0ad2	-0.033701725
162	0xbc5d8817	-0.013521216
163	0x3c8639b1	0.016384931
164	0x3d801e18	0.0625574
165	0x3d469af3	0.048487615
166	0xbcc8301a	-0.024437
167	0xbe1f6ab5	-0.15568049
168	0xbe21c9c0	-0.15799618
169	0x3e232bc0	0.15934658
170	0xbd3d2c16	-0.04618462
171	0xbe10378c	-0.1408369
172	0xbded5b7d	-0.11589716
173	0xbd11cade	-0.03559386
174	0x3d638568	0.055547148
175	0xbafc533a	-0.0019250878
176	0x3d9b83a5	0.075934686
177	0x3da4ba91	0.08043397
178	0x3d10693f	0.03525662
179	0x3df78eb8	0.12087768
180	0x3e4408fb	0.19144051
181	0xbd10c0b2	-0.03534002
182	0xbd5deeac	-0.054182693
183	0xba0c9076	-0.00053621025
184	0x3d454322	0.048159726
185	0xbdad791c	-0.084703654
186	0xbd5b5f21	-0.05355752
187	0xbc21ee70	-0.009883508
188	0xbe0074a6	-0.12544498
189	0xbcb5676b	-0.02214404
190	0xbd9db58c	-0.07700643
191	0xbca3a0d0	-0.019974142
192	0x3d723ac0	0.05913806
193	0xbb091001	-0.002091408
194	0x3e119501	0.14216997
195	0x3d9860ed	0.07440362
196	0xbd92b3a3	-0.07163169
197	0xbe803594	-0.25040877
198	0xbd93351c	-0.07187864
199	0x3d72d87e	0.059288494
200	0x3d2c4db7	0.042066302
201	0x3d652b23	0.05594934
202	0x3d6db921	0.05803788
203	0x3d18d4bf	0.037312265
204	0x3d15b227	0.036546852
205	0xbd17180f	-0.03688818
206	0xbc953271	-0.018212529
207	0xbd1eb8e9	-0.038750563
208	0xbdb9ea4b	-0.09077891
209	0x3d24a2b5	0.040194232
210	0xbdfadc6f	-0.122490756
211	0x3cc1321e	0.023583468
212	0x3e0f508d	0.13995571
213	0x3cf9bd6b	0.03048583
214	0x3dc589df	0.096454374
215	0x3c918c51	0.017767103
216	0x3d9b2396	0.07575147
217	0x3cb4ecc6	0.022085559
218	0xbe5a4b1a	-0.21317711
219	0xbdb36177	-0.08758824
220	0xbd901f40	-0.070372105
221	0x3e4f6882	0.2025471
222	0x3ea047f9	0.3130491
223	0xb9b6c087	-0.0003485719
224	0xbe4772bb	-0.1947736
225	0xbe50a01e	-0.2037358
226	0x3c01cb0e	0.007921947
227	0x3dfad51d	0.122476794
228	0x3d07fff5	0.033203084
229	0x3d2be2ef	0.041964468
230	0xbe32e552	-0.17470291
231	0xbd87990d	-0.06620989
232	0x3e29c775	0.16579993
233	0x3adb7155	0.001674215
234	0xbe325ce8	-0.17418253
235	0xbd99b50b	-0.07505234
236	0x3e2fb76c	0.17159814
237	0x3c7cf54d	0.015439344
238	0x3da4e613	0.08051696
239	0x3e83e6b7	0.2576196
240	0x3e033f05	0.12817009
241	0xbe7459d3	-0.2386239
242	0xbec305dc	-0.38090408
243	0xbcaccd7e	-0.02109408
244	0x3e10b455	0.14131291
245	0x3df56154	0.119814545
246	0xbdf1f639	-0.11814541
247	0x3c8b24e5	0.016985366
248	0x3dcaa197	0.09894102
249	0xbdfb55d9	-0.122722335
250	0x3cb4e702	0.02208281
251	0x3c20284e	0.009775234
252	0x3da94fdd	0.08267186
253	0xbe0c4edf	-0.13701962
254	0xbe36b082	-0.1784077
255	0xbe27a861	-0.16372825

model.conv.0.bias f4 [50]
0	0x3e73cf37	0.23809515
1	0xbe686620	-0.22695208
2	0xbe70fabd	-0.23533149
3	0x3de06bdc	0.109580725
4	0xbe26e64c	-0.16298789
5	0x3e5c9a25	0.21543176
6	0x3d9eddd8	0.07757157
7	0xbe0f5cd7	-0.1400026
8	0xbe85c2c5	-0.2612516
9	0xbe3e9072	-0.18609789
10	0xbcdd7bb1	-0.02703652
11	0xbd5d0ac9	-0.053965364
12	0xbed617b4	-0.4181496
13	0x3e5652ee	0.20930073
14	0xbe51c615	-0.20485719
15	0xbf2d57f5	-0.67712337
16	0x3c4b887f	0.01242268
17	0x3c789c38	0.015173964
18	0xbe87d318	-0.2652824
19	0xbde0ebeb	-0.10982498
20	0xbe6a2a60	-0.22867727
21	0x3c969f56	0.018386524
22	0xbdda2b82	-0.1065283
23	0x3dd69e71	0.10479439
24	0xbf0aa582	-0.54158795
25	0xbec09dfd	-0.37620535
26	0xbf300bd6	-0.6876806
27	0x3eacbb4e	0.33736652
28	0x3d88cbfc	0.06679532
29	0x3e1c0562	0.15236428
30	0xbe0e236a	-0.13880697
31	0xbe1c4013	-0.15258817
32	0x3e98725e	0.29774755
33	0xbee57c73	-0.4482151
34	0xbec240f5	-0.37940183
35	0xbee90a48	-0.45515656
36	0xba7c5196	-0.00096251944
37	0x3dccfe46	0.10009436
38	0xbef547da	-0.4790638
39	0xbeb73cac	-0.35788476
40	0xbe8fe2ce	-0.28102726
41	0xbea51b88	-0.32247567
42	0xbec80cc7	-0.39072248
43	0xbec3d0c9	-0.38245228
44	0x3e44c658	0.19216287
45	0xbe6fb24f	-0.23407863
46	0xbec7057e	-0.38871378
47	0xbe90e0e8	-0.2829659
48	0xbe3d979b	-0.18514864
49	0xbf0a7109	-0.5407873

model.conv.2.weight f4 [50, 50, 21]
0	0x3c910d55	0.017706553
1	0xbd414e62	-0.047193892
2	0xbd5d8e07	-0.054090526
3	0x3c308d76	0.010775914
4	0x3d54a0d0	0.051911175
5	0x3d1374d6	0.036000095
6	0xbc99e14c	-0.018784188
7	0xbc57597c	-0.013143893
8	0xbc4fdb21	-0.012686522
9	0xbd20a588	-0.039220363
10	0x3c0d8fba	0.008640224
11	0x3d3f4eb5	0.04670592
12	0xbb588aac	-0.003304164
13	0x3c1233ed	0.008923513
14	0x3aa10f81	0.0012287946
15	0xbd01d9ef	-0.03170198
16	0x3cab8655	0.020938078
17	0x3d802f13	0.06258979
18	0xbcd32562	-0.025774661
19	0xbd3acb6d	-0.04560416
20	0x3d0f3d14	0.034970358
21	0x3c140f73	0.0090368865
22	0x3b3baff8	0.002863882
23	0xbbb74c8c	-0.005593842
24	0xbc89bc9e	-0.016813572
25	0x3ae7f613	0.0017697237
26	0xbd5f0bd3	-0.054454636
27	0xbc29134e	-0.010319544
28	0x3c418cc6	0.011813348
29	0x3c8ae9dd	0.016957218
30	0xbd250d7e	-0.04029607
31	0xbcc19045	-0.023628363
32	0xbc0e61e5	-0.008690332
33	0xbcd6b6f6	-0.02621029
34	0x3c8fa153	0.01753298
35	0x3c30447f	0.010758518
36	0xbcca348b	-0.024683258
37	0xbd76e5e5	-0.06027784
38	0x3b15902e	0.0022821533
39	0xbc0880a9	-0.008331456
40	0x3c814347	0.01577915
41	0xbdaaa860	-0.08332896
42	0xbd17512e	-0.036942653
43	0x3ce3ad1f	0.027792512
44	0x3d018e55	0.03162988
45	0x3cb45458	0.022012874
46	0x3a810d4a	0.0009845879
47	0x3cd29434	0.025705434
48	0xbd034afe	-0.03205394
49	0x3d023be9	0.031795416
50	0xbd1bd4c7	-0.038044717
51	0xbe04e5be	-0.12978265
52	0xbd740703	-0.059577
53	0xbd9efd28	-0.077631295
54	0xbc9ab76c	-0.01888629
55	0xbd872c5d	-0.066002585
56	0x3c2078bc	0.00979441
57	0x3c662447	0.014046735
58	0xbca127d9	-0.019672321
59	0xbd7edfe4	-0.062225237
60	0x3cec4376	0.028840762
61	0xbc7a1539	-0.015263849
62	0xbcc7506d	-0.024330342
63	0xbd0fda31	-0.035120193
64	0x3c4f36c6	0.012647336
65	0xbce41162	-0.02784032
66	0x3d845e3a	0.06463285
67	0x3c00e250	0.007866457
68	0x3c9699b5	0.01838384
69	0x3d165c17	0.036708917
70	0xbd21f391	-0.039538924
71	0x3d19b609	0.037527118
72	0x3d34a765	0.044104952
73	0x3c369426	0.01114372
74	0xbc896b88	-0.016774908
75	0xbccab0ce	-0.02474251
76	0xbc6aceed	-0.0143315615
77	0x3d08e119	0.033417795
78	0x3cae2328	0.021256998
79	0xbbd11ab4	-0.006381357
80	0xbc7478fd	-0.014921424
81	0x3b9d7430	0.0048051104
82	0x3c97082a	0.01843651
83	0x3bd4934a	0.006487285
84	0xbd0826aa	-0.033239998
85	0x3c6e4c4d	0.014544559
86	0xba8dc43e	-0.0010815931
87	0xbd659ce4	-0.056057826
88	0xbd6b0195	-0.057374556
89	0xbccc6fd0	-0.02495566
90	0xbd6426fa	-0.055701233
91	0xbd07e748	-0.03317955
92	0x3cbfdd67	0.023421003
93	0xba34e2c9	-0.00069002487
94	0xbc48d6cc	-0.012258243
95	0xbdbff048	-0.09372002
96	0x3c09fd14	0.008422155
97	0xbc9a0360	-0.018800437
98	0x3cc40397	0.023927493
99	0x3cb155b6	0.021647315
100	0xbcb6598c	-0.022259496
101	0xbcdc58ec	-0.02689787
102	0x3af2c9d9	0.001852329
103	0x3c9a8fe7	0.018867446
104	0x3d4ef8f9	0.050530408
105	0x3d0acb48	0.03388527
106	0x3cfaddb2	0.03062329
107	0x3d0a8b7d	0.033824433
108	0xbc38ded0	-0.011283591
109	0x3d3689ac	0.044564888
110	0xbd86d1bd	-0.06582973
111	0xbd84d78e	-0.06486426
112	0x3be81710	0.0070828274
113	0xbd7cf765	-0.06175937
114	0xbbff65ca	-0.0077941166
115	0x3b092509	0.0020926616
116	0x3d014bee	0.031566553
117	0x3d099306	0.033587478
118	0x3d054b34	0.032542422
119	0x3cfef23f	0.031121371
120	0xbd2011aa	-0.039079346
121	0x3d68eee8	0.056868464
122	0x3ca207e8	0.01977916
123	0x3d261562	0.040547736
124	0xbbcbd3cc	-0.0062203165
125	0x3d38564d	0.045004178
126	0x3ccd7a58	0.025082752
127	0xbc14e87e	-0.009088634
128	0x3cc992b8	0.024606094
129	0x3c2221a4	0.009895716
130	0xbd23223d	-0.039827574
131	0x3d0225d0	0.031774342
132	0xbce3195b	-0.027722051
133	0x3b0200a0	0.0019836798
134	0x3d47adaf	0.048749622
135	0x3cc45248	0.023965016
136	0x3c526dd3	0.012843567
137	0x3d0ae4dc	0.033909664
138	0x3d3426c5	0.043982286
139	0xbb06a17d	-0.0020543032
140	0xbcc7d24d	-0.024392271
141	0xbcdc3188	-0.026879087
142	0xbd684b9c	-0.05671273
143	0xbb9408fe	-0.0045176735
144	0x3d10885d	0.035286296
145	0xba18b103	-0.00058247166
146	0x3d5a38af	0.053276714
147	0xbd0c661f	-0.034277078
148	0xbc62554e	-0.013814284
149	0xbc062fb7	-0.008190087
150	0xbd1a4758	-0.037665695
151	0xba3c0aa4	-0.00071732164
152	0xbc300306	-0.010742908
153	0xbb5c4677	-0.0033611336
154	0xbd3e593c	-0.04647182
155	0xbce3c069	-0.02780171
156	0xbd6e3e13	-0.058164667
157	0xba2485f4	-0.0006276064
158	0xbcc67dee	-0.02422997
159	0xbc28ad9a	-0.010295296
160	0x3c1fc10a	0.009750614
161	0x3d16c124	0.036805287
162	0xbcde6d8c	-0.027151845
163	0x3c80f6e4	0.015742727
164	0xbb4ba27d	-0.0031072192
165	0x3b7eb65b	0.0038866017
166	0x3c8c0e7c	0.01709675
167	0x3d70cda2	0.058789857
168	0xbdb8e311	-0.090276845
169	0xbcbbed2c	-0.02294024
170	0xbcf57f63	-0.02996797
171	0xbcd00133	-0.025391197
172	0x3a7f93d8	0.00097495085
173	0x3d20bb14	0.03924091
174	0xbd37c464	-0.044865027
175	0xbce691e8	-0.028145745
176	0x3b6a3d0e	0.0035741958
177	0xbcd3656a	-0.025805194
178	0x3c3af6e6	0.011411404
179	0x3d7ede22	0.06222356
180	0x3d0af5fd	0.033926
181	0x3d7c8de3	0.06165875
182	0xbc30e3a6	-0.010796463
183	0x3ca61893	0.02027539
184	0xbd29584e	-0.04134398
185	0x3c40dce9	0.011771419
186	0xbb02e4b1	-0.0019972736
187	0x3b8c5989	0.0042831344
188	0x3c187124	0.009304319
189	0xbcc39bf6	-0.023878079
190	0x3c08b5a3	0.008344087
191	0xbc86f902	-0.016476158
192	0xbb629e15	-0.0034579088
193	0xbd311aff	-0.043238636
194	0x3c44b39d	0.012005714
195	0xbcf35ae7	-0.029706432
196	0x3b0f4a40	0.0021864325
197	0xbc84832f	-0.016175834
198	0x3c8093a8	0.015695408
199	0xbc2d82ac	-0.010590237
200	0xbd3732cf	-0.04472619
201	0xbd4961f6	-0.04916569
202	0x3d069d77	0.032865014
203	0x3ca3cfc6	0.019996535
204	0xbcbe25af	-0.023211328
205	0x3b6d750b	0.0036233093
206	0xbca7a811	-0.020465882
207	0x3d6ed9cc	0.058313176
208	0xbb35f800	-0.0027766228
209	0xbd464694	-0.048407152
210	0xbd960158	-0.07324475
211	0xbcad5356	-0.021157902
212	0x3bbc91a4	0.0057546664
213	0xbd3553ed	-0.04426949
214	0xbd063c37	-0.03277227
215	0xbd3c9d85	-0.04604866
216	0xbc8bb436	-0.017053705
217	0x3b9015e7	0.004397142
218	0xbd174f30	-0.036940753
219	0xbd10dcf8	-0.035366982
220	0x3d4f758c	0.05064921
221	0x3c7e2961	0.015512795
222	0x3c0e858a	0.00869883
223	0xbd585731	-0.052817527
224	0xbc1e131a	-0.009648109
225	0xbc5d0850	-0.013490751
226	0x3b982ca6	0.0046439944
227	0x3c12a390	0.008950129
228	0x3d7573d4	0.059924915
229	0xbdc64753	-0.09681573
230	0xbcc9e538	-0.024645433
231	0xbd3a5da7	-0.04549947
232	0xbc13043c	-0.0089731775
233	0xbd56e2a5	-0.05246224
234	0x3bc504e1	0.0060125445
235	0xbde2665b	-0.11054679
236	0xbd843bae	-0.064566955
237	0xbce1e414	-0.027574576
238	0xbcedb4af	-0.02901682
239	0xbceccff5	-0.028907755
240	0xbd0925db	-0.033483367
241	0xbcaf831e	-0.021424826
242	0x3d5933e4	0.053028002
243	0xbb55271d	-0.0032524534
244	0xbd0f2526	-0.034947537
245	0xbcc729ef	-0.024311988
246	0xbd716a4b	-0.05893926
247	0x3cd66131	0.026169391
248	0xbd99a6f2	-0.075025454
249	0xbb3ad81b	-0.0028510157
250	0xbd27a88b	-0.04093222
251	0x3cd25918	0.025677249
252	0xbc06ccc9	-0.0082275355
253	0x3d4e8da7	0.05042806
254	0x3c1c4517	0.009537957
255	0x3d036aaa	0.032084145

model.conv.2.bias f4 [50]
0	0x3eeb114a	0.45911628
1	0xbd6aa707	-0.057288196
2	0x3cd41110	0.025887042
3	0xbd2c055a	-0.04199729
4	0xbe6699de	-0.22519633
5	0xbda163d9	-0.078803726
6	0xbe8f4ff5	-0.2799069
7	0xbd650eb3	-0.05592222
8	0xbd9beb31	-0.076132186
9	0x3d4b33b1	0.049609844
10	0xbc6fe1b9	-0.014641219
11	0x3d42f61f	0.047598
12	0x3e8b2959	0.27179983
13	0xbe04cc00	-0.12968445
14	0xbdc8ca80	-0.09804249
15	0xbdf17e83	-0.11791708
16	0x3e23f4ea	0.16011396
17	0x3da2adf5	0.07943336
18	0xba1fd18a	-0.00060965924
19	0x3ee3681c	0.44415367
20	0x3e8aec70	0.27133512
21	0xbe87199e	-0.26386732
22	0xbca0a4cf	-0.019609837
23	0xbdbab9e1	-0.09117485
24	0xbe551211	-0.20807673
25	0xbdb3b723	-0.08775165
26	0xbc995b76	-0.01872037
27	0x3a8ba800	0.0010654926
28	0x3e8dfe6d	0.27733174
29	0xbe2f907f	-0.17144965
30	0xbe8966fe	-0.2683639
31	0x3da4a4b7	0.08039229
32	0x3e785fcb	0.24255292
33	0xbe016dc0	-0.12639523
34	0xbe18f1ee	-0.14936039
35	0x3ecc7ad4	0.3993746
36	0xbdaadfdc	-0.08343479
37	0x3e61e42c	0.22059697
38	0x3ef3f8e6	0.47650832
39	0xbdabeb63	-0.08394506
40	0x3ed86eca	0.42272025
41	0xbe9f0c89	-0.3106425
42	0x3db90f37	0.09036105
43	0x3ecbc83e	0.3980121
44	0xbc2e6af4	-0.010645617
45	0xbc6dc9c5	-0.014513438
46	0xbe59f850	-0.2128613
47	0xbd981f6d	-0.07427869
48	0xbc058e61	-0.008151622
49	0x3f04fbfe	0.5194701

model.conv.4.weight f4 [50, 50, 21]
0	0xbc0ae8b1	-0.0084783295
1	0xbcffddd3	-0.031233704
2	0x3d0126da	0.031531192
3	0x3d2e153e	0.042500727
4	0x3db7bf08	0.08971983
5	0xbd204ec7	-0.039137628
6	0xbd9e6af8	-0.077352464
7	0xbd1b345c	-0.03789173
8	0xbc33db77	-0.010977617
9	0xbb5a6adf	-0.003332786
10	0x3d1498b3	0.036278438
11	0x3d832056	0.06402652
12	0x3da7244b	0.08161219
13	0x3c90ef29	0.017692165
14	0x3dbee45a	0.09320898
15	0xbc749188	-0.0149272755
16	0x3d7c38d9	0.06157765
17	0x3d22e6ae	0.039770775
18	0x3c6e437d	0.014542458
19	0x3d6937e5	0.05693807
20	0xbb47d11b	-0.0030489627
21	0x3d4b4d5e	0.04963433
22	0xbd4ee446	-0.050510667
23	0x3d0aea28	0.033914715
24	0xbb2b461c	-0.0026134318
25	0x3c3b1bc4	0.011420194
26	0xbd0d2929	-0.03446308
27	0x3cacb225	0.02108104
28	0x3ae8d6bd	0.0017764192
29	0xbc9ce274	-0.01915095
30	0xbd9bd010	-0.07608044
31	0x3d098ff1	0.03358454
32	0xbdb6aa99	-0.08919258
33	0xbcc11fbe	-0.023574706
34	0x3cbab7d0	0.022792727
35	0x3d3932f6	0.045214616
36	0xbbaf554b	-0.005350744
37	0xbc99d85f	-0.018779932
38	0xbd99df8b	-0.075133406
39	0xbd3fa472	-0.046787687
40	0xbdbdd895	-0.09269825
41	0xbd93b4c4	-0.07212213
42	0x3d0ec50a	0.03485588
43	0xbd3084ba	-0.043095328
44	0xbdb4d836	-0.088303015
45	0xbcc3996a	-0.023876864
46	0xbb7c534c	-0.0038501797
47	0x3d3bacbc	0.04581903
48	0xbd258510	-0.0404101
49	0x3a5db6ae	0.00084577024
50	0xbd8cbf5b	-0.06872436
51	0x3ca168d0	0.019703299
52	0x3c79f49e	0.015256075
53	0x3b73ad72	0.003718224
54	0x3d84d2ec	0.06485543
55	0x3c032ea5	0.008006726
56	0xbd0a6933	-0.033791732
57	0x3d79784a	0.060905732
58	0x3d05b1ad	0.032640148
59	0xbc2b74df	-0.010464876
60	0xbd1ef372	-0.038806386
61	0x3d902ce5	0.07039813
62	0x3d0b0702	0.03394223
63	0xbd400c57	-0.04688677
64	0xbc258018	-0.010101341
65	0x3c931db8	0.017958507
66	0x3cc2774c	0.023738526
67	0xbd58975b	-0.05287872
68	0x3c92a97f	0.017903088
69	0xbd2bb86d	-0.04192393
70	0x3d0346d6	0.032049976
71	0x3d1eb51f	0.03874695
72	0x3c46e614	0.012139816
73	0x3c2db5b2	0.010602402
74	0xbcd3b1f2	-0.025841687
75	0xbc304c02	-0.010760309
76	0xbce211d9	-0.027596401
77	0xbd166b34	-0.03672333
78	0x3c6b4a5e	0.014360992
79	0xbce6e288	-0.02818419
80	0xbc417c01	-0.01180935
81	0x3d100790	0.035163462
82	0xbd26ff21	-0.040770654
83	0x3d3852d5	0.04500087
84	0x3bf970a8	0.0076123066
85	0xbce9ee4e	-0.028556015
86	0xbc75d4b1	-0.015004323
87	0xbc2c9a19	-0.010534787
88	0xbac4f5a5	-0.0015026821
89	0xbc3981eb	-0.011322479
90	0x3aaf2b76	0.0013364393
91	0xbd1600c1	-0.036621813
92	0x3bbbf6e2	0.005736218
93	0x3ba29d45	0.0049625956
94	0x3d117f9e	0.035522096
95	0xbccb8efd	-0.024848456
96	0x3d357de0	0.044309497
97	0xbccda3be	-0.025102492
98	0xbd7f23c6	-0.062289976
99	0xbd13d1e6	-0.036088847
100	0xbd1bf5e2	-0.03807629
101	0xbda91849	-0.08256585
102	0xbca177ab	-0.019710382
103	0xbcc0ed21	-0.023550572
104	0xbd6781b2	-0.05652017
105	0x3da2859d	0.07935641
106	0xbc0d3189	-0.008617767
107	0xbcf8be76	-0.030364256
108	0x3c1911eb	0.009342651
109	0xbd2f736f	-0.042834695
110	0xbc7bea23	-0.015375647
111	0xbc27183c	-0.010198649
112	0xbd80bf93	-0.0628654
113	0x3bd44ee2	0.00647913
114	0xbcebd284	-0.028786905
115	0xbc8d597e	-0.017254587
116	0x3cfd33d0	0.030908495
117	0x3d68d873	0.056847047
118	0xbc42d865	-0.011892413
119	0xbc8fab73	-0.017537808
120	0xbda77e47	-0.08178382
121	0xbc8deeca	-0.017325778
122	0x3cecccbe	0.028906222
123	0xbd8e8307	-0.06958585
124	0xbc4286ac	-0.011872929
125	0xbca49e56	-0.020095032
126	0xbc900b8b	-0.01758363
127	0xbd6b50bb	-0.057450037
128	0xbd276a60	-0.04087293
129	0xbd70f17a	-0.05882404
130	0xbca4f238	-0.02013503
131	0x390e7fa4	0.00013589725
132	0xbc0d5eaf	-0.008628531
133	0x3b98a8b4	0.004658783
134	0x3d6ccb4a	0.05781106
135	0xbadc1afd	-0.0016792711
136	0xbd216e8b	-0.039412063
137	0x3b33d469	0.0027439839
138	0xbcd819d0	-0.026379496
139	0x3d058397	0.032596197
140	0x3d504195	0.050843794
141	0x3b2cc579	0.002636282
142	0xbda337d0	-0.0796963
143	0x3ac7f84c	0.0015256493
144	0xbd846188	-0.06463915
145	0x3c41dec4	0.011832897
146	0x3d348097	0.044067945
147	0x3d80ffe2	0.06298806
148	0x3d3cb85c	0.046074256
149	0xbca2d9a6	-0.019879173
150	0x3cb1222a	0.021622736
151	0x3d077fcc	0.03308086
152	0xbd1b6e24	-0.037946835
153	0xbcd39293	-0.025826728
154	0xbd349d35	-0.044095237
155	0x3c6816ef	0.014165624
156	0x3c71720b	0.014736663
157	0xbd3d1d01	-0.04617024
158	0x3d3888f1	0.045052473
159	0x3d8210c8	0.06350857
160	0xbc8f916f	-0.017525403
161	0xbdd9e065	-0.10638503
162	0x3d096658	0.03354487
163	0x3cb2c591	0.021822723
164	0xbd40dfb1	-0.04708833
165	0x3d9d938c	0.07694158
166	0x3c9f94c9	0.019480126
167	0x3d5b075b	0.05347381
168	0xbd24cb00	-0.04023266
169	0xbdb886ea	-0.09010108
170	0xbd84c06e	-0.064820156
171	0xbcff70b9	-0.03118168
172	0xbc7c1938	-0.015386872
173	0x3c8dfd7b	0.017332783
174	0xbc8db0b8	-0.01729618
175	0x3ba14b41	0.004922301
176	0xbd3c0417	-0.045902338
177	0x3cb1fe76	0.021727782
178	0x3d440a3d	0.047861326
179	0xbc858ecf	-0.016303448
180	0x3d28a239	0.041170333
181	0xbd53b63c	-0.051687464
182	0xbcc82831	-0.024433227
183	0xbd36e81b	-0.044654947
184	0xbcfd4643	-0.030917292
185	0xbdad0fec	-0.084503025
186	0xbcc1e183	-0.023667103
187	0x3d682039	0.056671355
188	0x3c57a4ff	0.013161897
189	0xbc622420	-0.013802558
190	0x3c43f4ca	0.011960218
191	0x3da0648a	0.07831676
192	0xbcabc12c	-0.020966135
193	0x3ca13a4b	0.019681117
194	0xbb404bad	-0.0029341981
195	0x3bd9c6d6	0.0066460175
196	0xbc29f862	-0.0103741605
197	0x3b974d9c	0.004617406
198	0xbd1a3c4d	-0.037655164
199	0x3d305922	0.043053754
200	0xbc25abab	-0.01011173
201	0xbd823eaf	-0.06359612
202	0xbd00dbfc	-0.031459793
203	0x3a79d457	0.00095302373
204	0x3bd3ee2d	0.0064676018
205	0x3cfaab56	0.030599277
206	0xbb6058cc	-0.0034232615
207	0xbaa5e58e	-0.0012656914
208	0x3c11cd27	0.00889901
209	0xbc359d25	-0.011084829
210	0x3d1bfc8e	0.03808265
211	0xbcf63f53	-0.030059492
212	0xbcb35f05	-0.021895895
213	0x3cb985df	0.022646843
214	0x3d24828b	0.040163558
215	0x3c9dc414	0.019258536
216	0x3c96c3ab	0.018403849
217	0x3bd429a5	0.006474691
218	0x3d3f0960	0.0466398
219	0x3cd0e876	0.025501471
220	0x3a539d7d	0.0008072479
221	0x3a2c13a8	0.00065642083
222	0x3d17067b	0.036871415
223	0xbc6a62a3	-0.014305743
224	0xbd56a6e8	-0.052405268
225	0x3c8747cd	0.01651373
226	0x3d75d41f	0.060016748
227	0xbd311905	-0.04323675
228	0xbcc99aa6	-0.024609875
229	0xbc37f09d	-0.0112268
230	0x3ce1577d	0.027507538
231	0x3d1d5a8e	0.038416438
232	0xbb9bc4bb	-0.0047536767
233	0xbbf12fbe	-0.0073604276
234	0xbcefefa2	-0.02928907
235	0x3c8b3bbf	0.016996263
236	0x3c1eb759	0.009687268
237	0xbbf97613	-0.0076129525
238	0xbb78644f	-0.0037901585
239	0xbd02396d	-0.031793047
240	0xbcac8390	-0.021058828
241	0xbccb3bd1	-0.024808796
242	0x3d2dd5b0	0.042440116
243	0x3ca6660d	0.020312333
244	0xbc368408	-0.011139877
245	0x3d42a9e7	0.047525313
246	0xba704e12	-0.0009166907
247	0x3d5d0f77	0.053969827
248	0x3d4bab3f	0.04972386
249	0x3cd5384c	0.026027821
250	0xbc0d9f4c	-0.008643936
251	0x3ca2bfc7	0.019866837
252	0xbb03cdc7	-0.0020111667
253	0x3d834c19	0.06410999
254	0xbc9ed4c3	-0.019388562
255	0xbc1d89c7	-0.009615368

model.conv.4.bias f4 [50]
0	0x3e76b0e4	0.24090916
1	0x3f00adf4	0.5026543
2	0x3eceea91	0.40413335
3	0x3e724eae	0.23662826
4	0x3b30f253	0.0026999905
5	0x3ea4998e	0.32148403
6	0x3ea3b9dd	0.3197774
7	0xbd8bfd7d	-0.068354584
8	0x3dca57be	0.09880017
9	0x3f3311b1	0.6994887
10	0x3e0228f4	0.12710935
11	0x3ec9938f	0.3937039
12	0x3e026957	0.12735496
13	0x3d5dd5d6	0.054159008
14	0xba9d5201	-0.0012002588
15	0x3f0bdfe5	0.5463851
16	0xbc015133	-0.007892895
17	0x3baa01ac	0.0051881876
18	0x3f021e42	0.5082742
19	0x3d3d72d5	0.04625209
20	0xbc13996a	-0.009008745
21	0x3ef747fc	0.48297107
22	0x3d044e98	0.032301515
23	0x3c5ea71b	0.013589646
24	0x3d02c9ed	0.031930853
25	0x3ce40ffa	0.02783965
26	0x3d490afb	0.049082737
27	0x3d1af4a1	0.037830953
28	0x3e4d84ea	0.20070234
29	0x3e0c66ea	0.13711134
30	0x3e249f60	0.16076422
31	0x3e3be3d2	0.18348625
32	0x3e5cc5e6	0.21559867
33	0xbc4a93fc	-0.012364384
34	0xbc083b81	-0.008314968
35	0x3b8f21e5	0.004368054
36	0x3d03c4bb	0.03217004
37	0x3dc33766	0.09532051
38	0xbe0b7b64	-0.13621289
39	0x3f31da64	0.6947386
40	0x3e190f7d	0.14947315
41	0xbd9212ca	-0.0713249
42	0x3cd6e1ed	0.026230777
43	0xbdda088d	-0.10646162
44	0x3de57cc8	0.11205441
45	0x3e8d92a4	0.2765094
46	0x3f0bb5eb	0.5457446
47	0x3e1e3d31	0.1545303
48	0x3d94f8ab	0.07273992
49	0x3e1a50e8	0.15069926

model.conv.6.weight f4 [1, 50, 21]
0	0x3dbe0efa	0.092802
1	0xbe1e21bb	-0.15442555
2	0xbe6ef706	-0.2333642
3	0xbe0572ad	-0.13032027
4	0x3dd30e74	0.10305491
5	0x3dc43cbe	0.09581898
6	0xbd04f348	-0.032458574
7	0x3c6a96d0	0.014318183
8	0xbd893422	-0.06699397
9	0x3d20f821	0.039299134
10	0x3db45748	0.0880571
11	0x3d24ddc6	0.040250562
12	0x3c8273f8	0.015924439
13	0xbd456a59	-0.048197124
14	0xba292157	-0.00064518064
15	0x3d2d307e	0.042282574
16	0xbd57863b	-0.052618247
17	0xbddd0045	-0.10791067
18	0xbe2ec0ee	-0.17065784
19	0xbd4ca973	-0.049966287
20	0xbda2f338	-0.079565465
21	0x3e0e7026	0.13909969
22	0x3d01b918	0.03167066
23	0xbc5b0ecd	-0.013370228
24	0x3dbc5dd6	0.09197585
25	0xbdb1e428	-0.086860955
26	0xbd81915e	-0.06326555
27	0xbe2f36cc	-0.17110747
28	0xbe3385eb	-0.17531554
29	0xbdcefffc	-0.10107419
30	0x3d92ae09	0.07162101
31	0x3d422a90	0.047403872
32	0xbcad02fe	-0.02111959
33	0xbd83753a	-0.064188436
34	0xbd6cdd28	-0.0578281
35	0xbd6708a7	-0.056404736
36	0xbdc56be6	-0.096397206
37	0xbe094c52	-0.1340802
38	0xbde2f83b	-0.110825025
39	0xbcf2e1ee	-0.029648747
40	0xbe348e24	-0.17632347
41	0xbdc2ecfa	-0.09517856
42	0x3cd7b9b5	0.02633367
43	0xbdec1840	-0.11528063
44	0xbd0cd291	-0.0343805
45	0xbd1989fb	-0.037485104
46	0x3dee76e2	0.11643769
47	0x3c62b783	0.013837698
48	0xbe3bc2dc	-0.18336052
49	0xbe4a31c8	-0.19745553
50	0xbd7a1391	-0.061053816
51	0x3dfeacad	0.12435279
52	0xbc96921c	-0.018380217
53	0xbd6f3d9b	-0.05840836
54	0x3dcb69f4	0.09932318
55	0xbe21c486	-0.15797624
56	0xbe79d63a	-0.24398127
57	0xbdeadef9	-0.1146831
58	0xbce90efe	-0.028449532
59	0xbd265af3	-0.04061408
60	0x3d272e71	0.040815774
61	0x3c58d632	0.013234662
62	0x3de7af4a	0.113127306
63	0x3e0ee1cc	0.13953322
64	0xbd4edb19	-0.050501917
65	0x3be09427	0.0068535986
66	0xbcdca20d	-0.02693274
67	0x3da61050	0.0810858
68	0xbc95c808	-0.018283859
69	0xbdae5bb3	-0.08513584
70	0xbdac14f0	-0.08402431
71	0xbd032c67	-0.032024767
72	0xbd8529d6	-0.0650212
73	0xbd55f7d8	-0.052238315
74	0xbde8e482	-0.113717094
75	0xbd860ff3	-0.06546011
76	0x3cea9eba	0.02864014
77	0x3cccc73f	0.024997352
78	0xbd862f20	-0.06551957
79	0xbce1cbde	-0.027563032
80	0x3cbc4cb5	0.022985796
81	0x3d368d9e	0.04456865
82	0xbd8b0122	-0.067873254
83	0xbe37661b	-0.17910044
84	0xbd66b91f	-0.05632889
85	0xbcbdac4f	-0.023153452
86	0xbd3f4343	-0.046695005
87	0xbb4020e4	-0.002931648
88	0xbcd778df	-0.026302753
89	0x39706200	0.00022924691
90	0xbd362162	-0.04446543
91	0x3cc51d95	0.024061957
92	0xbce3b397	-0.027795596
93	0xbcee8015	-0.029113809
94	0x3d4ff18f	0.050767478
95	0x3c605692	0.013692515
96	0x3cf480c4	0.029846556
97	0xbd49bb5a	-0.049250938
98	0xbd1440fe	-0.036194794
99	0x3d287dbe	0.041135542
100	0x3d7fde11	0.06246764
101	0x3d65543a	0.055988528
102	0x3d277e4f	0.04089194
103	0x3ced0719	0.028934048
104	0x3ba12c05	0.0049185776
105	0x3d8e223b	0.06940123
106	0x3dc43103	0.09579661
107	0x3d65cb10	0.05610186
108	0xbb7e68b4	-0.0038819732
109	0x3da15d05	0.0787907
110	0x3d31f8d6	0.0434502
111	0xbd65f4ba	-0.056141593
112	0xbdb3ea5b	-0.08784934
113	0xbdea698a	-0.11445911
114	0xbd8ecf9e	-0.069731936
115	0xbcfc636e	-0.03080913
116	0xbe33e8e1	-0.17569305
117	0xbdb26cf7	-0.0871219
118	0xbe2b7eed	-0.16747637
119	0x3dd46f63	0.10372808
120	0xbd98d003	-0.0746155
121	0xbe2dca9f	-0.16971825
122	0xbc8a5d6d	-0.016890252
123	0xbdd89c7d	-0.10576723
124	0xbc0a85a8	-0.008454718
125	0xbd1faf5e	-0.038985603
126	0x3e041b9e	0.1290116
127	0x3d02c361	0.03192461
128	0x3daa2a68	0.083088696
129	0x3b962e33	0.004583144
130	0x3df96247	0.12176948
131	0x3c96ceab	0.018409094
132	0x3d953dd0	0.072871804
133	0xbd153b4b	-0.0364335
134	0xbe335595	-0.17513116
135	0xbd9ce725	-0.07661275
136	0x3dcdbf7c	0.10046288
137	0xbdb99d22	-0.09063174
138	0xbdfae9b1	-0.12251604
139	0xbe8e5cc0	-0.27805138
140	0xbdea75c9	-0.11448247
141	0xbd93c217	-0.07214754
142	0x3d969846	0.073532626
143	0x39c9fbf3	0.00038525424
144	0x3d827797	0.06370466
145	0xbc40a62d	-0.011758369
146	0x3da4cc77	0.08046811
147	0x3ad42b97	0.0016187307
148	0xbcd6c459	-0.026216673
149	0xbcaa6e37	-0.020804508
150	0x3d7b464f	0.06134635
151	0x3d01dc03	0.03170396
152	0xbd11c936	-0.03559228
153	0xbbf1b57c	-0.007376371
154	0xbca4a186	-0.020096552
155	0xbb739ce6	-0.0037172376
156	0x3bd99403	0.006639959
157	0x3d482244	0.048860803
158	0xbdd75c39	-0.10515637
159	0x3cb0f3c9	0.02160062
160	0xbcff4369	-0.031160073
161	0xbdf5cead	-0.12002311
162	0x3d42de0e	0.04757505
163	0xbe04e4ed	-0.12977953
164	0xbdba7ce2	-0.09105851
165	0x3d2af5fe	0.041738503
166	0x3da64c81	0.08120061
167	0xbc664288	-0.014053948
168	0xbe2763c6	-0.16346654
169	0xbe3ec8eb	-0.18631332
170	0xbdaee7ca	-0.08540304
171	0x3c8648a8	0.016392067
172	0xbd8108ce	-0.063005075
173	0x3d72e619	0.05930147
174	0xbdc752d2	-0.097325936
175	0xbd6ddede	-0.05807387
176	0xbda37cdd	-0.079828
177	0xbcf9b93f	-0.03048384
178	0xbd2c4d9d	-0.042066205
179	0x3c862cfa	0.016378868
180	0xbad9a0ac	-0.001660367
181	0x3dc0e98c	0.094195455
182	0x3c9f26fe	0.019427773
183	0x3d6f5cf8	0.05843827
184	0xbdc0118b	-0.09378346
185	0x3c6e6196	0.0145496335
186	0x3d1ee264	0.03879012
187	0x3d84736b	0.06467327
188	0x3d269242	0.040666826
189	0xbdcc1654	-0.09965196
190	0xbe042274	-0.12903768
191	0xbcd1eb8c	-0.025625013
192	0x3d56f14e	0.05247622
193	0xbd59ed1f	-0.053204652
194	0xbde801b0	-0.11328447
195	0xbe230a91	-0.15922
196	0xbe55fcb3	-0.20897178
197	0xbe681528	-0.2266432
198	0xbe768f09	-0.24078001
199	0xbe5a7160	-0.21332312
200	0xbe0a3c2b	-0.13499515
201	0x3b4e0f0f	0.003144208
202	0x3e05aa0d	0.1305315
203	0x3d7a0da0	0.06104815
204	0x3ca642f6	0.020295601
205	0xbda4259f	-0.08014988
206	0x3c75b08e	0.014995707
207	0x3e02d729	0.1277739
208	0x3d8c6e39	0.06856961
209	0x3cd6f491	0.026239665
210	0x3db4d5f2	0.08829869
211	0x3d35dc60	0.04439962
212	0x3ca8ee7f	0.020621536
213	0xbd654756	-0.055976234
214	0xbda521c2	-0.080630794
215	0xbd2a71c5	-0.041612405
216	0xbd363f55	-0.044493992
217	0xbdb79727	-0.08964377
218	0xbe00ba11	-0.12570979
219	0x3da303d4	0.079597145
220	0xbdc05b2e	-0.09392391
221	0xbe04aa09	-0.12955488
222	0x3c1c75eb	0.009549598
223	0xbd91e2bf	-0.071233265
224	0xbd8f558f	-0.06998741
225	0x3dddbf3d	0.108274914
226	0xbcb710bb	-0.022346845
227	0xba2dda5d	-0.0006631965
228	0x3db20e7d	0.0869417
229	0xbd02a470	-0.0318951
230	0x3d8996f4	0.06718245
231	0x3df05265	0.117344655
232	0xbdae6976	-0.08516209
233	0xbe5a1a07	-0.21298991
234	0xbe31dd98	-0.17369688
235	0xbdd63796	-0.10459821
236	0xbe030325	-0.12794168
237	0xbde52036	-0.111877844
238	0xbd6b5c92	-0.05746133
239	0xbc0895a0	-0.008336455
240	0x3d6dc562	0.058049567
241	0x3c55db33	0.013052749
242	0x3ce10024	0.027465887
243	0x3c9692e8	0.018380597
244	0x3db60e98	0.08889502
245	0xbc4af6d4	-0.01238795
246	0xbd60f9ce	-0.054925732
247	0xbd72c642	-0.059271105
248	0xbdb6346d	-0.08896718
249	0x3d63e12c	0.055634663
250	0x3ce4f4a2	0.027948681
251	0x3dbb12a8	0.09134418
252	0x3ccc4d92	0.024939332
253	0xbd7d558e	-0.06184917
254	0xbc96216b	-0.018326482
255	0xbd24a922	-0.04020036
